checkpoint/checkpoint_deuling.pth (torch_old, 46006 bytes, 9 tensors)

model.0.weight f4 [64, 37]
00000000: 3c92 663e 8dfe 813c 5fdf 98bd 8dbd 14bf
00000010: 48d3 81bf 8136 9a3d 33a7 80bd a396 633d
00000020: 1336 963e 953b 853e 294c 13bd 2cb7 853d
00000030: 1b2f 6cbd 1357 81be fa21 91be cf24 3b3c
00000040: 2069 d0bc c65b 5b3e 3a36 0abe 2f7b 933d
00000050: dc1d 343e 927f d63d 92f9 1a3e 0b8f 3abe
00000060: b0e0 afbe d612 aa3d 11c3 c13d 3630 dcbd
00000070: 111c 0bbe 69aa bebd 6f56 40bd 46f9 123e
00000080: 1104 003d 202d 193e 3db6 523c ef93 a7bd
00000090: 538a 3a3c 7c59 d0bc 6037 793e 7686 38be
000000a0: 1031 803c c3ea 85be 8b05 14be 68a3 c1bd
000000b0: af94 44be 70dd 9dbd 564a 2a3e e77d ad3d
000000c0: 7a4f 7cbe f8e4 12be 5061 c23d 2d21 543e
000000d0: 21e2 b8bc 4a76 94bd df76 243c d13b 82bd
000000e0: 0972 71bc 39c3 c0ba 2866 24be 4d8f e2be
000000f0: d78d 89be eef2 ebbe 3c23 6bbe a2d8 7ebd
00000100: b1bd 543c b149 9a3e 4985 d83d e6e5 e4bc
00000110: b5be 99bd 0787 2b3c 2e2e ff3d ac59 583e
00000120: 074c af3d 9b3b be3d 33af 823e 2c47 043e
00000130: 2e42 5c3e a182 003e 19b4 e9bb 1614 b43d
00000140: 94da b03d 5129 ff3d ff66 723d ca2e 5ebd
00000150: 15c1 dd3e 4aa0 b5be ce4a c8be d40d 4ebf
00000160: 8a2c 24c0 52f7 933d 4960 2e3e 8d00 be3d
00000170: a8ae e83d 1d98 25bc dc11 06bd 37c2 84bd
00000180: 8b79 2d3c 249e 4e3d 7af2 013e b4a9 c63d
00000190: 2adb f93d 176f b43d 7460 f73d a232 c63c
000001a0: 1faa e33c 30eb 31bb f025 0cbc 4ff9 9dbc
000001b0: a300 4fbc 7a61 a53c a48b 9f3a 8e01 913e
000001c0: 8158 3dbb 05b9 f23d 716e 47be 46a4 20bf
000001d0: fb9a 16be 9d44 c83d ef5e e83c 505f 443e
000001e0: 1355 b83e 59c9 0f3e 3adc e9bd 608b 39be
000001f0: 18ef c43d 233d 2b3e 6f6d ab3c 9df4 7cbe
00000200: c165 39bd a55f 983d f87f 2abe 3e43 8c3e
00000210: 82ad 05be 4825 88bd b60e 3ebe d5df 94bd
00000220: 188e d1bd d637 febd dc21 1b3e b08d f63e
00000230: bba5 993e 1578 0f3d 744c 2d3e 5671 993c
00000240: 05f8 cdbc 8f96 413d 381b 3fbd 6e94 1bbd
00000250: 687a 743c 69dd 25be 3c8b 6abe d2bb 07be
00000260: 3146 b1bd 5a8a e7bd 7ea5 0f3e 0208 e4bd
00000270: d06d d33d aa1c 39be 49e3 e7bd e250 09be
00000280: 6bfd d13d 8756 6abe 8bbd 94be 9ab7 ebbd
00000290: 64ba 42bd 1319 7bbd 816c 1bbe 51fa eb3d
000002a0: 1667 bfbd d1b9 acbe ff8f e7bc 4ee7 883e
000002b0: 6f3e 4b3f 6b92 bfbc 6e9a 32be 6f0e 2b3d
000002c0: 453e 8e3d 5c4a 393b d75d 7ebc 0fe2 5dbe
000002d0: abe6 aabd 851a 7a3e 5ddb 0c3f 3219 67bd
000002e0: 3ec9 97ba cea3 44be b176 d0bd 7cf4 6abd
000002f0: 91ca 773e 5ccc 7dbc 1aa7 89ba 3e00 0c3f
00000300: 48c6 38be c4ab 5bbd 0ebe 06bf 19ce b4be
00000310: 3536 7e3d 9277 89bc f0f8 593d 941a 35be
00000320: 4da2 033d c943 abbd 83ad fdbc a1fe ce3d
00000330: 3773 08bd d92f 6a3e 3986 47be 7257 f03d
00000340: 8a57 2c3d 2645 fbbb b4a9 c5bb bbbe 01be
00000350: 465c 6c3b d744 863c 7ff7 30be 4593 063d
00000360: 7201 893d ff5b 5abe c820 45be bfa7 41bf
00000370: e0fe 573e aa56 ac3c 87f1 73bc a209 80bd
00000380: 15a3 533c e031 04be 7d23 83be 9dcb 32bc
00000390: 6bd4 75be d8d1 98bc d89a 143e d899 163f
000003a0: 9f02 1e3d 053a 4f3e 6f27 22be a4a6 483d
000003b0: a694 7e3e 2cb9 16bd 1093 ccbd cf33 62bc
000003c0: 4fe3 0f3e bee0 4d3e 4eb3 dd3d 6b83 6bbe
000003d0: e799 403c 5c5e 4f3e 6ad3 903e 15da 3fbe
000003e0: 17b6 a43d 002e 6f3c 2be9 6fbe 2d0a f93d
000003f0: fff1 d63d e952 ddbd 6339 463d e89a 3fbe
0.22516721 0.01586845 -0.0746448 -0.5810173 -1.0142603 0.07529927 -0.06281891 0.05556358
0.2933813 0.2602202 -0.035961304 0.06529078 -0.05766211 -0.25261745 -0.28346235 0.01142235
-0.025440753 0.21421728 -0.13497248 0.0720123 0.17589515 0.10473551 0.15134266 -0.18218629
-0.3435111 0.08304374 0.09461034 -0.10751383 -0.13584925 -0.09309847 -0.04695743 0.14352903
0.031253878 0.1495862 0.012860832 -0.08182513 0.011385518 -0.025433294 0.2433753 -0.18020043
0.015648395 -0.2615567 -0.1445524 -0.094549954 -0.19197343 -0.077082515 0.1662992 0.084712796
-0.24639693 -0.14345157 0.09491217 0.2071578 -0.022568764 -0.07249124 0.010038107 -0.06359065
-0.014736661 -0.0014706618 -0.16054595 -0.44249955 -0.26866028 -0.46083778 -0.2296266 -0.062218316
0.012984679 0.30134347 0.10572297 -0.027941655 -0.075070776 0.010469205 0.1245998 0.21127957
0.08559423 0.092887126 0.2552429 0.12917775 0.2150962 0.12549831 -0.007132065 0.087928936
0.086354405 0.12459052 0.059180256 -0.05424384 0.43311372 -0.35473853 -0.3911957 -0.8048985
-2.5652184 0.07224907 0.17028917 0.09277449 0.11361438 -0.010107067 -0.032731876 -0.06482356
0.01058806 0.050443783 0.12690154 0.09700337 0.12200005 0.08810251 0.12078944 0.024194065
0.027791081 -0.002714824 -0.008553967 -0.019283919 -0.012634429 0.020188082 0.0012172353 0.283215
-0.0028891864 0.11851696 -0.19475724 -0.6275066 -0.14707558 0.09778712 0.02836558 0.19176984
0.36002406 0.14041652 -0.11418958 -0.18119574 0.09615916 0.1672254 0.020926205 -0.24702688
-0.045263056 0.07440118 -0.16650379 0.27395052 -0.13054469 -0.06647736 -0.185603 -0.07269255
-0.1023218 -0.124129936 0.15149635 0.48154974 0.30009255 0.03502663 0.16923696 0.0187308
-0.025142679 0.047262724 -0.046656817 -0.03798335 0.014921762 -0.16197743 -0.22904676 -0.13255242
-0.08655966 -0.11305685 0.14027974 -0.1113434 0.103236794 -0.1807734 -0.11322648 -0.1340976
0.10253414 -0.2288457 -0.2905086 -0.115096286 -0.047541037 -0.06130321 -0.1517811 0.115223534
-0.09345834 -0.33735517 -0.028266905 0.2673897 0.7939214 -0.023385247 -0.17441723 0.04176181
0.06945471 0.0028273081 -0.015525303 -0.21668266 -0.08344778 0.24424179 0.5502222 -0.056420512
-0.0011580361 -0.19203112 -0.101788886 -0.057362065 0.24198367 -0.015490618 -0.0010502071 0.5468787
-0.18044388 -0.053630605 -0.5263375 -0.3531349 0.062063415 -0.016780648 0.05321592 -0.1768592
0.032137204 -0.08362538 -0.030966526 0.1010716 -0.033313002 0.22869815 -0.19484796 0.11735429
0.04207567 -0.0076681552 -0.006032193 -0.12670414 0.0036065741 0.016390247 -0.17281912 0.03285529
0.06689729 -0.21324156 -0.19250786 -0.75646585 0.21093321 0.021037418 -0.014889128 -0.06251837
0.0129173 -0.12909651 -0.25613013 -0.010912803 -0.24006812 -0.018654749 0.14512193 0.58828497
0.03857672 0.20236976 -0.15835355 0.048987046 0.24861392 -0.036797687 -0.099889874 -0.013806297
0.14051555 0.20105264 0.10825215 -0.2299935 0.011755443 0.20250839 0.28286296 -0.18735535
0.080425434 0.01459837 -0.2342879 0.12160144 0.10495376 -0.108068295 0.048394572 -0.18711436

model.0.bias f4 [64]
00000000: d743 003e 6d97 45be abd9 fabc bdc7 a3bd
00000010: f42f aa3d 790f 8cbd eb64 e2bd a0ca 2e3d
00000020: c385 193e ff16 13be f3de 5d3c c95e 333e
00000030: 72b3 c83d bc2f 033e cc0c a0bd e5c6 6abd
00000040: 56dd 153c d12e 453d 1824 143d 176a 2abe
00000050: f257 1fbe 9d9a 6e3c 6d8b 9ebd 82ba d1bd
00000060: 2007 89be eaf6 603e 1bf3 603c b204 42be
00000070: 8a4e 2a3e bc6d 2c3e 3cdc 8f3c d275 1abe
00000080: 72b2 f03c a417 19bd 04a0 eebd 44de 68bc
00000090: 3695 ecbd 2677 3bbd a15f fdbd 3169 abbd
000000a0: e2d1 67bc 0f8a 49bd d37c 1fbe 4d9d ba3c
000000b0: a508 e1bc 2d93 d9bd f884 8b3d 567a 45be
000000c0: 7cb3 07be de1a 093c 7130 3cbe 2171 913d
000000d0: ff28 61bc 601e 81bd d8b6 33be e109 93bd
000000e0: 7ab2 b83d 890e a0bd f706 b8bd 2dc0 43bd
000000f0: 4577 4bbd ca0f c03d c6ec e63d aae3 d2ba
0.12525879 -0.19296046 -0.03062137 -0.079970814 0.083099276 -0.06838889 -0.11054405 0.042673707
0.14992432 -0.14364241 0.013541925 0.17516626 0.097998515 0.12811178 -0.07814941 -0.057318587
0.009147009 0.04814035 0.036167234 -0.16642033 -0.15560892 0.01456323 -0.07741437 -0.10240652
-0.26763248 0.2196919 0.013729836 -0.18947104 0.16631523 0.16838735 0.01756107 -0.15084007
0.029381964 -0.03737606 -0.11651614 -0.0142131485 -0.11551897 -0.045767926 -0.123717554 -0.08369673
-0.014149161 -0.04920393 -0.1557496 0.022780085 -0.027469942 -0.10623775 0.06812471 -0.19284949
-0.13252062 0.008368222 -0.18377854 0.07101656 -0.013742684 -0.06304622 -0.17550218 -0.071796186
0.09018417 -0.07815272 -0.089857034 -0.047790695 -0.04967429 0.093780115 0.1127563 -0.0016089578

model.2.weight f4 [64, 64]
00000000: 7f8c 143d 5d83 2dbd e9e4 453f aad5 dc3d
00000010: a49a 9b3d 53d9 c43d 9727 773b 9a50 c5bd
00000020: 91aa b43d 104f b53d d114 8bbe 5c22 e9bd
00000030: b164 7fbe c343 0cbd 6a8e 133e 57e9 a4bc
00000040: 464f 0e3d c3c7 213d 965e 90bd d918 5f3d
00000050: 6245 adbe 3eb0 f53d 3d61 623c 7996 f73d
00000060: efae dbbd f8c2 14be d75f c43c 8025 f53c
00000070: beda 01bf d84c 49be 81fc 4e3e cd4c 0a3d
00000080: 220d 8b3d 070e b93d 7fe9 7b3e 24de fa3d
00000090: a6dd 2bba 50f7 463e ba1e 973e 3156 fbbb
000000a0: 0416 54be 08ff 2a3d 8a16 733d f495 003d
000000b0: 681b 093e 5c9f 39be 4d6c a63d a78f 443e
000000c0: 4ac3 1bbd 2075 60bd fbe9 0abe d453 46be
000000d0: 9c9e 4ebe 77b5 12be 123a 283e dde1 09bd
000000e0: 0a7d 0fbe 7c61 24bd d7db 3cbe cc49 3c3e
000000f0: c5c0 673d 1b19 a23e 9e25 35be 25f7 b83d
00000100: f784 36bc 84c6 b83d 9c02 b23d f4cd d23d
00000110: 5153 15be 53e9 1f3d 61ba fdbc 4ca6 9ebd
00000120: f06c 1fbd 207e 7cbe cf97 d13b 7d89 303e
00000130: c3ce 60be 370f 173e 0ba2 12bf b781 093e
00000140: 5eef efbd f1d1 dbbd 52eb 683d ca12 e23d
00000150: 983f 1a3d 72a0 063c cb9b 8ebd b544 793d
00000160: 41e5 4cbe a082 c2bd 8d5d 753d e02e cabe
00000170: 4e17 033e ffe6 2dbe 9a4e b23d c155 8d3d
00000180: 0aec 0abc f9b0 c03c 5f46 e0bd cb43 3ebd
00000190: 8b7f 0cbe d6cc b83d b8d9 c53d 3bac 6fbe
000001a0: 320a 62be 5edd 5ebe 455d 433c 445d 98be
000001b0: 91c2 e5bd 8a62 843e a452 b9bd 2ffa 31bd
000001c0: d213 d0be 389b 1b3e 918e afbe 8c6a fcbc
000001d0: 2893 c1bd 0c41 a8bc fd3c d6be 98cc 07bc
000001e0: f060 40bd 71bc 62be e4da 543c 1842 aab8
000001f0: f79f bebd ceaf ab3d 6cbe 5dbe 94f6 583d
00000200: 8f9b 0dbe e9b7 26be 86c9 843c e77c 82be
00000210: 37a5 ba3b 0423 8e3d cd25 75bd 6794 073d
00000220: 1193 0f3e 4fb7 bb3d 716b d03d 351b e8bd
00000230: 0f61 693e 1889 5ebe da32 473e 6ad0 353e
00000240: c3f8 a5bb 431c a33c ec6d a9bd 19c0 3d3c
00000250: 6dc2 31bd e4c0 0e3c acd7 f7bd 00b2 3c3c
00000260: 5e7b da3c fd88 e63e 2fe0 3e3d 4444 d53d
00000270: 4938 ec3c 4de4 003f c205 9cbd 3389 05bd
00000280: 063b 0f3e 9367 1dbe 3495 c93d 361b b53d
00000290: 7421 55bd 915f 4b3d af76 553e 22d8 0e3e
000002a0: da1b b53d bf48 8cbe 1fdb 763e dbbe 8dbd
000002b0: 19d0 483e e759 343d 0aad 74be b7f8 253e
000002c0: ea91 ccbd ced1 f8bd 0338 f2bd d72c ba3d
000002d0: 7470 13bd b246 d5bd 664f bb3d 0379 24bd
000002e0: 67c6 b1bd 29bb 83be 4a29 4c3e c50b 963d
000002f0: 845e d83d 5206 da3d f568 0c3d 21a4 7abd
00000300: 5957 993d e080 aebd 7cd6 ae3c 04b8 19be
00000310: 09ec a8bc 1e88 bdbd 4ccd a43c 017e 97bd
00000320: 5aed febd 05bd 553e a68d 05bc 91c2 9dbd
00000330: 161f a83d 1585 2f3d adbb 8a3d 2c3c 69bd
00000340: d228 94bd 45ad 55be c9d8 6dbd de00 913d
00000350: 5b52 0bbe 880e 943d e421 463b cb92 113e
00000360: 0882 23bc 8c5d 04be a69a bdbd d584 8c3d
00000370: b047 0a3f 597e 9dbd a163 6dbc bd3d 9a3b
00000380: 052b 89bd 5625 0bbb 3749 81bd 9dc1 08bd
00000390: 0c1a 07be 139b f3bd a07f 133e f9ab 3d3d
000003a0: 33bc 87bd 5b25 ec3d ce7e 38be 69eb 55be
000003b0: 7ea3 563d 11d6 15be 7dcd ecbd 0fab 8d3e
000003c0: 6647 cebd 1d72 9c3e ee2e d2bd 6828 f33c
000003d0: 4c99 d33c a4fa f23b 241f 9ebc d565 91ba
000003e0: e9c5 c7be 83ba a5be 4795 acbd 3a74 e33d
000003f0: 0b33 14be 4bb3 5fbe 485b be3d b605 673e
0.0362668 -0.042361606 0.77302414 0.10782941 0.07597855 0.09611764 0.0037712806 -0.09634514
0.088215955 0.088529706 -0.2716432 -0.11383507 -0.24940754 -0.03424431 0.14409795 -0.020130796
0.03474357 0.03949715 -0.07049291 0.054467056 -0.33841997 0.11996506 0.013817129 0.12089247
-0.10726725 -0.145275 0.023971481 0.029925108 -0.507244 -0.1965822 0.2021351 0.03376465
0.06789614 0.09035879 0.2460079 0.12249401 -0.00065561605 0.1943028 0.2951563 -0.007670187
-0.20711523 0.041747123 0.059347667 0.031393006 0.13389361 -0.18127197 0.081261255 0.19195424
-0.03802804 -0.0547992 -0.13565819 -0.19367915 -0.20177692 -0.14327036 0.16428402 -0.033662666
-0.14012542 -0.04013203 -0.18443237 0.18387526 0.056580324 0.3165978 -0.17690131 0.09031514
-0.0111401 0.09022239 0.08691904 0.10293189 -0.14582564 0.039040875 -0.030972661 -0.07746562
-0.03892225 -0.24657488 0.006396271 0.17239948 -0.21953873 0.14751898 -0.5727851 0.13428389
-0.117155775 -0.107334025 0.056865044 0.1103874 0.037658304 0.008216964 -0.06963309 0.06085654
-0.20009328 -0.09497571 0.05990367 -0.39488888 0.12801859 -0.1698265 0.08706398 0.06901122
-0.008479128 0.023521887 -0.10950922 -0.04645137 -0.13720529 0.09023444 0.09660667 -0.23405544
-0.22074202 -0.21764132 0.011924093 -0.29758656 -0.11218751 0.2585643 -0.090489656 -0.043451484
-0.40640122 0.1519593 -0.34288457 -0.030812524 -0.09451896 -0.02053883 -0.41843405 -0.008288525
-0.046967447 -0.22142197 0.012991641 -8.1185426e-05 -0.093078546 0.083831415 -0.21654671 0.05296953
-0.13828872 -0.16281094 0.016209375 -0.25485918 0.0056959647 0.069402725 -0.059850503 0.033100512
0.14020945 0.09165823 0.10176743 -0.11333314 0.22790931 -0.21731985 0.19452992 0.17755285
-0.005065055 0.019910937 -0.08272919 0.011581444 -0.04339831 0.008712981 -0.12101683 0.011517048
0.026670154 0.4502639 0.046600517 0.10413411 0.028835433 0.5034836 -0.07618286 -0.032601546
0.1398736 -0.15371542 0.09842911 0.08843081 -0.052033857 0.049651686 0.20846055 0.13949636
0.08843203 -0.2739925 0.24107026 -0.069211684 0.19610633 0.04403105 -0.23894134 0.16208158
-0.099887684 -0.12149392 -0.1182709 0.09090584 -0.035995916 -0.10413875 0.091460034 -0.04015447
-0.0868042 -0.2572873 0.19937626 0.073264636 0.105649024 0.10645737 0.034279782 -0.06119168
0.07487363 -0.08520675 0.021342508 -0.15011603 -0.020620363 -0.09254478 0.020117424 -0.0739708
-0.12447615 0.20872886 -0.008151447 -0.07703126 0.08209054 0.042851526 0.067740776 -0.05694215
-0.07234348 -0.20866878 -0.05806807 0.070802435 -0.13605635 0.07229334 0.0030232603 0.14216153
-0.009979732 -0.1292631 -0.092580125 0.06861273 0.54015636 -0.076901145 -0.014489085 0.004707067
-0.066976584 -0.002123197 -0.06312793 -0.03338777 -0.1319353 -0.118948124 0.14404154 0.046306584
-0.06627693 0.115305625 -0.18017122 -0.20890583 0.052402012 -0.14632441 -0.11562631 0.2766957
-0.10072212 0.30555812 -0.102628574 0.029682353 0.025829934 0.0074151326 -0.019301958 -0.001109297
-0.3901818 -0.3236886 -0.0842691 0.11106153 -0.14472596 -0.21845739 0.09294754 0.22560772

model.2.bias f4 [64]
00000000: befc 2cbd 7793 a3bd e6b7 50bc 6cad 66bd
00000010: 185d a5bb f837 68be 7ab5 a2bc 4de0 3d3d
00000020: c05f eb3d ae55 833d 5f18 a4bd a276 5fbd
00000030: e952 37bd 828f febd 9d93 27be b10f 303e
00000040: c52b 9abd 4da1 a3bd ee41 2ebe 6409 bc3c
00000050: c8dd cbbd 0a76 903b dfc1 9abd 4cc8 76be
00000060: e3db 8abd 8302 51be 7179 a73d fb99 93be
00000070: 770b cebd 0e55 bdbd e669 bd3d 8676 d9bd
00000080: 327e 10be e825 44bd 1c4b ddbd e6ba 09be
00000090: b855 09be 44ea 07be 1a49 8fbe 42f2 47be
000000a0: f148 b0be a113 163e 8314 ccbb be29 75be
000000b0: 89f2 2cbe 8a98 1abe 5b1e 44be b95b 75be
000000c0: ab71 dbbb 7dde 94bd be8c 0fbe d64c ab3b
000000d0: 102c 38be 674a a6bd 70bd efbd bdcb 40be
000000e0: 3d94 0dbe 2510 6dbe 0786 c3bd db4d a4be
000000f0: 7af4 853d 257c a1bc 5296 cf3c d261 99be
-0.04223322 -0.07987111 -0.012739157 -0.05631773 -0.005046498 -0.226776 -0.019861925 0.046356488
0.11492872 0.064128265 -0.08012461 -0.054556496 -0.044756804 -0.12429716 -0.16364904 0.17193486
-0.075278796 -0.0798975 -0.17017338 0.022953697 -0.09954411 0.0044086026 -0.07556509 -0.24099845
-0.06780221 -0.20411114 0.0817746 -0.28828415 -0.100607805 -0.092447385 0.09248714 -0.1061831
-0.1411064 -0.047887713 -0.108053416 -0.13450202 -0.13411605 -0.13272959 -0.2798546 -0.19526008
-0.3443065 0.14655925 -0.006228031 -0.23941705 -0.16889395 -0.15097252 -0.19152205 -0.2396077
-0.0066969 -0.07268999 -0.14018533 0.0052276654 -0.17985559 -0.0811966 -0.11706054 -0.1882772
-0.1382608 -0.2315069 -0.09547048 -0.3209065 0.06540771 -0.019712517 0.025340233 -0.29957443

model.4.weight f4 [64, 64]
00000000: 759a 893d aebd 22be 8661 673d 1478 a7bd
00000010: 2418 c0bd 4c30 8c3d a6fb 813e fd88 583b
00000020: ca17 c6bc 7dc1 99bc 141c 85be 811a 7a3e
00000030: 4e5b cabd 5769 f0bc cdc3 d3be f2c0 a43d
00000040: f41f bdbd dcfc a33d a39f 893e 43da 4fbe
00000050: 74f4 4cbe ae34 52be 2873 40be 2394 8abd
00000060: 81b0 98be c8d0 21be 4c8e 39be 27ac d13d
00000070: 0f22 6d3e 8cd6 113e 8167 36bc a0e5 49bc
00000080: dca0 e33e 70fd 753c d402 ce3d e5a8 ea3c
00000090: 466b e83d bfa1 12bb 9355 213d 8ac6 88be
000000a0: e2ca 49bc d2f9 a1bd c053 6b3d 3149 013e
000000b0: 832e e53d 5b51 473e f6e6 3c3e ac2e 213e
000000c0: 6a49 68be b1a7 e13d 0747 01be eab3 5fbe
000000d0: 7131 a63e 4962 ed3d 5e7e 28ba cd64 b1bd
000000e0: e10d a8be ea7a eabc b3ab 733e 365c dd3e
000000f0: d22c 8dbe ae30 533d 304f 84be 060d 973e
00000100: d98e d13c b928 1cbe 9cee c53d d7e8 84bc
00000110: 1642 5dbc 9790 e8bd f7ec 963c ebca 273d
00000120: bd56 eabd 6d06 ad3d ba92 f73c 2285 0cbd
00000130: 46a4 13be bec9 a53d e1bd 38bd 4a58 d63d
00000140: 4f55 eebd 18e6 8c3d 7b45 8abe f833 7f3b
00000150: f5ea 0e3d c3dd 3e3d f209 0cbd 47ac f43c
00000160: 2774 08bc 8741 2fbe aa34 ee3d 038a 01bc
00000170: e0fa 2ebe 4859 2c3d a0e8 063d 3db0 9c3d
00000180: 32a3 03bd 8027 4fbd 2335 613d fc3d 35bd
00000190: bc8b 613c ad89 453c 8dcc 8ebd efd3 0abd
000001a0: b878 5ebd c76e d93d bc08 0cbd 76ac 733c
000001b0: 5397 00be d23d d5bd 9d67 b5bc 18d8 efbd
000001c0: 9859 3ebd 18bb d7bc cf50 7fbd c5e1 e0bd
000001d0: a37a 1a3d 7859 6c3c 46e2 9e3d 110c 1abd
000001e0: 589d bdbd a4dd 1bbe a32b c63d 0d5f 8abe
000001f0: c619 8bbc 0a9a 8ebe 75e9 7bbc 279e 56bd
00000200: 572b bd3c 5561 fc3c 5e6a 053e a858 403e
00000210: 2fc0 b63d 7bb8 48be 211f 733d 3dab 98bd
00000220: 505b 753a 8e76 80be 7882 04bf f2b5 0a3d
00000230: 72e0 333e 3ced 303e f8d4 a93d a88a 193e
00000240: ed6d 0e3e 515d 4b3e 56fb f2bc 2e03 47bd
00000250: d1b6 45be 3442 e8bc 09e8 193e 433a 47bd
00000260: 7f06 c0bd 6b53 b3bd 1042 3f3e 0789 743d
00000270: 8c30 0b3e 9e63 febc b71c c0bd 64c9 f1bc
00000280: 73e6 b6be 5ec5 3b3d 3f8e d03d f8f7 7f3e
00000290: dda4 e43a 3251 aa3d 105b c2bd 766b cfbc
000002a0: 42d5 803d b53d 993d 3144 233e eca6 413d
000002b0: bfdc bd3c 4095 1dbd 9c3f 9e3c 52ed 3e3e
000002c0: 5044 debc 3295 81bd 0b36 d4be 77ff d73d
000002d0: 184c dfbd f0cc 783d 2ac1 a23d 142a 653d
000002e0: d830 05bf a9af 41bd 1b1f 2a3e 2ada 6dbd
000002f0: 279d 1abe 0cfd 19be dfb9 ea3d 2a05 193e
00000300: 9b59 b2be 97b4 883c d053 33be fcef b43c
00000310: 0258 d0bd 8beb 9ebe 9073 c4be 7b57 08be
00000320: 1c50 06be b6c9 a2bd 92e7 6c3e d782 c5bc
00000330: 366f 2ebb dc39 9b3c 334f 8f3d ae33 0bbe
00000340: 6179 a73e b407 1cbd e1fa d83d f6bc 2e3e
00000350: b936 27bd 316c a93d 6be6 97be adec 0abe
00000360: bfc3 543e a50f c9bd 7339 bdbe 143b 603d
00000370: 4f94 99bc f2c6 253e 16d5 f3bd 3de7 2a3c
00000380: 0802 04be 8ea5 8a3e 32f0 66be bf62 4f3e
00000390: a3db 1c3d 1dc3 823e 9028 28bc 6811 de3b
000003a0: 377f 11be 4550 d63d 9e3f 653e 34d6 9ebd
000003b0: 9b41 3a3e 846b 87be b2cc 833d 9782 d73d
000003c0: f2aa 60be e8d5 2f3a 42ab e93e 5d97 633d
000003d0: 8c8c 1bbe dc99 f13d 7a61 03be bb20 47be
000003e0: c3a2 b33e 1c37 fdbd 390e 26bc f2d4 b0bd
000003f0: 9238 70be f096 6b3d 46a5 d33e b1ef 73bd
0.067189135 -0.1589267 0.05648949 -0.081772 -0.093796045 0.068451494 0.25387305 0.0033040636
-0.024181265 -0.01876902 -0.25997984 0.24424173 -0.09880696 -0.029347105 -0.41360322 0.08044614
-0.0923461 0.080072135 0.26879606 -0.20298104 -0.20015126 -0.20527908 -0.18793929 -0.06766536
-0.29822162 -0.158023 -0.18120688 0.102379136 0.23157524 0.14242 -0.011133076 -0.012322813
0.44458663 0.0150140375 0.10059133 0.028644988 0.11348586 -0.002237424 0.03938825 -0.26713973
-0.012316437 -0.079089776 0.057452917 0.12625577 0.11190512 0.19464628 0.1844748 0.1574046
-0.22684255 0.11018313 -0.12624751 -0.21845976 0.32459596 0.11591012 -0.00064275216 -0.08661804
-0.3282309 -0.028623063 0.23795967 0.43234414 -0.27573258 0.051560096 -0.25841665 0.29502124
0.02558081 -0.1524991 0.09664652 -0.016224308 -0.013504526 -0.11355703 0.01842354 0.040965002
-0.11442325 0.08448491 0.030221332 -0.034306653 -0.14418134 0.0809512 -0.045102958 0.104660586
-0.11637365 0.068798244 -0.27006134 0.0038940888 0.03489204 0.046598207 -0.034189172 0.029867304
-0.008328474 -0.1711484 0.116311386 -0.00790644 -0.17087889 0.042077333 0.032936692 0.07650802
-0.032138057 -0.05057478 0.054982316 -0.044248566 0.013766225 0.01205675 -0.06972609 -0.033893522
-0.054314345 0.10616832 -0.034188017 0.014872661 -0.12557726 -0.10412182 -0.022144133 -0.117111385
-0.046472162 -0.02633433 -0.062332924 -0.10980562 0.03771461 0.014425628 0.07758002 -0.037609164
-0.092585266 -0.15221268 0.09676292 -0.27025643 -0.016980063 -0.27851897 -0.015375485 -0.05239692
0.023091955 0.03080813 0.13028857 0.1878382 0.08923375 -0.19601624 0.05935586 -0.07454536
0.0009359615 -0.2509045 -0.5176158 0.033864923 0.17566088 0.17277998 0.08292574 0.149943
0.13909121 0.19859816 -0.029660862 -0.048587017 -0.1930802 -0.02835188 0.1502992 -0.048639547
-0.09376239 -0.08756145 0.18677545 0.059700992 0.13592738 -0.03105336 -0.09380477 -0.029514976
-0.35722694 0.04584252 0.10183381 0.24996936 0.0017444153 0.08316268 -0.09490025 -0.025319796
0.06290676 0.07482473 0.15943982 0.04727833 0.023176549 -0.038472414 0.01931744 0.18645218
-0.027132183 -0.06327285 -0.41447482 0.10546773 -0.109031856 0.06074232 0.07946999 0.055948332
-0.52027655 -0.047286663 0.16613428 -0.058069386 -0.15099011 -0.15037936 0.11461233 0.14943376
-0.3483399 0.016687674 -0.1751244 0.02208709 -0.10173036 -0.3103908 -0.38369417 -0.13314621
-0.13116497 -0.079486296 0.23135212 -0.02411024 -0.002661658 0.018948488 0.06997528 -0.13593933
0.32709792 -0.038093284 0.10594726 0.1706427 -0.040823672 0.08272589 -0.29667982 -0.13566847
0.20777796 -0.09817437 -0.36957893 0.05474384 -0.018747477 0.16189173 -0.11905877 0.010431108
-0.128914 0.27079433 -0.22552565 0.20252512 0.0382954 0.25539485 -0.010263577 0.0067769773
-0.14208685 0.10464529 0.2238755 -0.077557 0.18189089 -0.26449215 0.06435527 0.10522955
-0.2194021 0.0006707595 0.45638472 0.055564273 -0.15190333 0.117969245 -0.12830153 -0.1944608
0.35085115 -0.12364027 -0.010135227 -0.08634366 -0.2345908 0.057516992 0.4133703 -0.05955476

model.4.bias f4 [64]
00000000: 08f2 1ebe c212 d53e 555c 913e 7628 753c
00000010: 9aae 34be 4a0e 0f3e 9672 87be d39f 093f
00000020: 9576 94be 7486 b53e 86cf 52bc d2c2 86bd
00000030: 26e6 5a3d 8ba5 a1be 3561 7a3d c3d2 c5bd
00000040: 5ea5 9fbe 40cc 2ebe e779 65bd 5603 d63e
00000050: 7427 38be 494d 1d3d 9171 043d a216 aabe
00000060: 277f 05be a79c 8c3d 2de4 fa3d a86a e83e
00000070: c43d df3e 9c62 c93c aa4b 493d b5a8 29be
00000080: c72e cabe 4842 993e b45c 423e 3209 9f3d
00000090: 65f2 babe cc4f a63e 52b0 d83e aab2 603e
000000a0: 37b7 a7be 9b91 253e 1cd0 cd3e 55d8 85be
000000b0: 5c56 a7bd c843 493b 7465 11bd fd59 2d3d
000000c0: 0b0f 26bd 5597 f63e 3585 323e 8276 9ebe
000000d0: 275e a9bd 5898 153e 14ff a23e ce89 be3e
000000e0: 9c9d f73c d6ff d23d 6dd1 ed3d d498 903d
000000f0: 0e4d 6dbe fb55 a43e 4d44 3e3e e713 70be
-0.15522015 0.41615874 0.28390756 0.01496326 -0.1764473 0.13970295 -0.2645461 0.537595
-0.2899672 0.35454142 -0.01286686 -0.06580128 0.053442143 -0.31571612 0.06112786 -0.0965934
-0.31180853 -0.17070103 -0.05602446 0.4179942 -0.179838 0.038403783 0.032334868 -0.33220392
-0.13036786 0.068658166 0.12250552 0.45393872 0.4360181 0.024583153 0.049144424 -0.16568263
-0.39488813 0.2993338 0.18980676 0.07765426 -0.36513057 0.32482755 0.42322022 0.21943155
-0.3275697 0.16168825 0.40197837 -0.2614161 -0.081707686 0.0030710567 -0.035497144 0.042322148
-0.04054169 0.48162332 0.17433627 -0.3094979 -0.08269911 0.14608896 0.31835234 0.37214512
0.030226521 0.10302703 0.116122104 0.070604 -0.23173925 0.32096848 0.18580742 -0.23445092

advantage.0.weight f4 [4, 64]
00000000: 73cb dbbd 2ba1 8abc 8556 e3bd 23b2 6bbc
00000010: 8dff 28be 2951 d9bc 5109 04be 0fd7 41bd
00000020: 3ddf c93d 809e c23d 82a1 713d 83f0 17be
00000030: 169f 5d3e 6cb1 333d c7d6 95bd 7631 273e
00000040: dc7d 3c3e e500 37be 0783 213e bf15 053c
00000050: b6cd 29be 839d 43bc d389 0f3e 6d16 68bc
00000060: ffd0 4fbe 8aa4 1c3d d36e a43d 9c1a 15bb
00000070: 1302 cb3d a544 053e abe5 70be dd48 74be
00000080: e715 413c c6ea 98bd 77af c33d 939c b6bc
00000090: 14ba db3c fb1f 2abd 6b70 26bc a9a2 5bbb
000000a0: d12c c83d 0ed6 863d c868 8dbd d64d afbe
000000b0: 5708 3abd 9c56 7b3e be3e 103b 3da5 d83d
000000c0: 7baf 00be dc73 cd3d 11cc 193d aa35 2cbe
000000d0: cb25 b53d be30 3dbd 5261 f03d 19b0 b9bd
000000e0: d631 cfbb 14dc 71be 96d6 c73d bea7 2dbe
000000f0: 2d02 f639 4ab0 0fbd a8d0 6a3b b8f1 12be
00000100: f8ef 0ebe 1b20 f73c 17ad 48bd e5ab e33d
00000110: 7049 783e 3cb5 263d 22e2 283e f85a a03d
00000120: 82ba 603e 66af 10bd bed9 b63e 3689 11be
00000130: a7c2 b33c 2d49 813e 1a78 a8bd 4cea 973e
00000140: 4e30 fd3c 7388 60bd faf9 cbbd 9d38 503d
00000150: 4292 0f3d 226c 223d ce0b 913e 6e6f d6bc
00000160: 6539 4cbe d2ff bbbd 2e00 f43d 444b b83c
00000170: 264d 833c 8855 8b3d 6025 f4bd 2260 aa3d
00000180: 578f 723e 4a0d 333c f429 863d 090d d33c
00000190: a08a 85be 28f5 fb3d 3c82 673d b8c6 b4bc
000001a0: eef6 a3bd 0fce 673d f86f a7bd 5284 983d
000001b0: 10ed e3bd 52c4 0abc c4c4 783e d885 533d
000001c0: 4e00 b6b9 f9c4 93bd 96d1 423d 3b1a 733e
000001d0: 5a2d 213e bd6f 1d3e 3bec b7bd d500 04be
000001e0: 8b75 86bc 6974 213d 13d9 063e c35d d43c
000001f0: 1c25 65be 4c2e bb3d c560 62bd 1b01 2dbe
00000200: 5fa1 0b3c 9fa0 febc 7b5b a83d 78ed 81bd
00000210: 0757 79be 8406 53bd f7aa fa3d 2753 39bd
00000220: b280 b4bd 44ba 483d 3916 ce3d 59a5 0c3e
00000230: f7f8 373d 95f8 24be 1b5d 983d 9e16 a13e
00000240: 2f8e cfbc 9c99 463e d0b5 bf3e ac07 253d
00000250: 2709 0d3e 2be4 15be d6c4 b9be 0f0b 66be
00000260: 4945 a4bb 4908 a43d b84c fcbd 9452 a33d
00000270: 70b8 8fbd 8b9c 28bb b907 f9bd dfab 783d
00000280: ad73 97bc 7f27 afbd 9348 fabc 8b79 383e
00000290: 0a51 bf3e fa42 c2bd 6e5c 87bd c690 6dbd
000002a0: db68 97bd ef96 41be 5981 eabb bc0e a53e
000002b0: 459f ae3e 6117 4bbe cd3b bbbe 5398 15be
000002c0: 4788 723e e531 f93c 824d 2bbe 7415 84bd
000002d0: 7c59 bc3d 9871 c83d c936 a83d 03c7 1d3e
000002e0: 233a 273e 2f7d e43d 173f afba 309d c0bb
000002f0: 68ae d1bc 1739 3c3d e161 e5bd 1ebb ca3e
00000300: f113 bb3e 6112 833d 0d76 153e d302 603e
00000310: a3e3 31be aa70 24bd dc3b fcbd 94e4 d93c
00000320: 74d5 533d e680 e73d ecfd ddbe c377 293e
00000330: acf4 3bbe d188 783e f98a 25be 863c 37bf
00000340: ed64 82be a457 273e d017 b7be 4e07 693d
00000350: 9a92 273e e747 443e 224d b73d 2b47 103e
00000360: aa65 b33d 9fa3 4c3e 8ae3 02be e6f8 d8bd
00000370: 22b9 4fbd 4028 79bb cc64 d33d 8344 79be
00000380: 647a 7dbc 2dbf 533d 6fc1 a23b 1aa7 aabd
00000390: 2424 f7bc 6b1b 98bd 17dc 01bd 8ba1 5e3e
000003a0: bf93 bfbc bb64 323d 18e4 dabc a3d7 943d
000003b0: 29f9 bfbd bd86 b4bd d681 cdbd f604 a23c
000003c0: 1d8d 233e f4d3 4dbc aa53 febd 638b b03e
000003d0: 4223 c9bd fbf2 30be 4c19 14be 8a97 473d
000003e0: 8bb6 2e3e 173a efbd ea03 36bc 724e 203e
000003f0: 14eb c23d bfde dd3c 9386 6d3d 383e 35be
-0.10732164 -0.016922554 -0.11100487 -0.014385733 -0.16503735 -0.026527958 -0.12894179 -0.047324236
0.098570324 0.09502888 0.058991916 -0.14837842 0.21642718 0.043870375 -0.07316356 0.16327462
0.18407387 -0.17871435 0.15772639 0.00812286 -0.16582379 -0.011939409 0.1401742 -0.014165503
-0.2029457 0.038242854 0.080289505 -0.0022751456 0.09912505 0.13014467 -0.23525111 -0.2385592
0.011785007 -0.074666545 0.09554952 -0.022291457 0.026822127 -0.041534405 -0.0101586385 -0.00335137
0.09774173 0.065837964 -0.06904751 -0.34239072 -0.04541811 0.24544758 0.0022010054 0.10578392
-0.1256694 0.10031864 0.03754813 -0.16817346 0.08845099 -0.046189062 0.117373124 -0.09066791
-0.0063230796 -0.2361911 0.09757726 -0.1695852 0.00046922397 -0.03508023 0.0035829935 -0.14350021
-0.13958728 0.030166676 -0.048993196 0.11116771 0.24246764 0.040700182 0.16492513 0.07829851
0.21946147 -0.035323523 0.35713 -0.14212498 0.021943403 0.2525114 -0.082260326 0.29670942
0.030906823 -0.054817628 -0.099597886 0.05083524 0.03505159 0.039653905 0.2832932 -0.02617618
-0.1994377 -0.09179653 0.11914097 0.022496827 0.016027998 0.06803423 -0.11921191 0.08319117
0.23687492 0.010928461 0.06550971 0.025763052 -0.26082325 0.12302619 0.056520686 -0.022067413
-0.080060825 0.056592997 -0.08175653 0.07447113 -0.111292005 -0.008469658 0.2429381 0.051641315
-0.00034713972 -0.07215304 0.047563158 0.23740475 0.15739956 0.15374656 -0.08980604 -0.12890942
-0.01641347 0.039417658 0.13168745 0.025923615 -0.22377437 0.0913969 -0.055268068 -0.16894953
0.008522361 -0.03108245 0.082205735 -0.06344122 -0.24349605 -0.051519886 0.1223964 -0.045245316
-0.08813609 0.04900576 0.100628324 0.1373495 0.044915166 -0.16110452 0.074396335 0.31462568
-0.025336353 0.19394535 0.374434 0.04029052 0.13773023 -0.1463782 -0.36282986 -0.22465156
-0.0050131422 0.08009393 -0.123193204 0.07974735 -0.070176005 -0.0025728073 -0.12159676 0.060710784
-0.018487776 -0.08552455 -0.030552184 0.18015115 0.37366515 -0.09485431 -0.066094264 -0.057999395
-0.073930465 -0.18905233 -0.0071565327 0.32237804 0.34105888 -0.19833137 -0.36569062 -0.14608888
0.23684798 0.0304193 -0.16728786 -0.06449404 0.09196755 0.09787291 0.082135744 0.15407948
0.16330771 0.111566894 -0.0013370243 -0.005878113 -0.025595859 0.045952883 -0.112003095 0.39595884
0.36538652 0.0639999 0.14595814 0.21876077 -0.17371993 -0.040146507 -0.12316105 0.026598252
0.051717237 0.11303882 -0.4335779 0.16549592 -0.18355054 0.24270941 -0.16166295 -0.71576726
-0.25467625 0.16342026 -0.35760355 0.056891732 0.16364518 0.19168054 0.08950259 0.14089648
0.08759625 0.19984291 -0.12782112 -0.105943486 -0.050713666 -0.0038018376 0.1032196 -0.24342541
-0.015471075 0.05169599 0.0049669067 -0.08332653 -0.0301686 -0.074271046 -0.031704035 0.21741311
-0.02338588 0.043553095 -0.026720092 0.07267692 -0.093736954 -0.08814762 -0.1003453 0.019777756
0.15971799 -0.012562741 -0.124183014 0.34481344 -0.09821178 -0.1728019 -0.14462775 0.048728503
0.17061822 -0.11681002 -0.011109332 0.15654925 0.09517494 0.027083753 0.057989668 -0.17699516

advantage.0.bias f4 [4]
00000000: bab1 9dbb 4ae6 02be baa3 c5bc cd37 8cbd
-0.0048124464 -0.12783161 -0.024125922 -0.06846581

v_s.0.weight f4 [1, 64]
00000000: 95aa c4bb 1fa0 8b3e 182d 823e a794 2d3e
00000010: 9aac c6be b08d 7a3e 3ad6 b1be 661b bf3e
00000020: 4567 f2be 37ec 833e c8db 293e b176 263e
00000030: fea2 7d3e bc98 dfbe 88eb 8c3e 7031 51be
00000040: df52 babe 6a2c 04be 2dc4 4b3d 4b26 8b3e
00000050: df2e 54be 3f63 e83d 8ee4 dd3d e69d d6be
00000060: 3bfc e6bc 0bd3 f63d 59eb df3d 9b99 9d3e
00000070: d1e0 a03e 38e5 573e f7bc e23d 1134 4e3d
00000080: f157 0fbf 640a 4b3e 7de4 5e3e b603 283e
00000090: 4e8a e2be 16f7 4a3e 826d 8a3e b8bd 4f3e
000000a0: 6138 cbbe bfc2 523e d414 923e fbf1 b8be
000000b0: 7ef0 e83d 6e25 6d3e f038 283e d42a 183e
000000c0: 0613 923d f77a a73e 71b2 c33e 4f10 12bf
000000d0: 4f75 373e beab 2d3e 994f b43e 58ed a53e
000000e0: fe6b db3c 5a2e 803e 3215 3c3e 374f 5b3e
000000f0: 6858 24be 1208 463e 85a9 a83e 4c37 25be
-0.0060017803 0.272706 0.2542503 0.16951238 -0.3880356 0.24468112 -0.34733754 0.3732559
-0.47344413 0.25766155 0.16587746 0.16256215 0.24769208 -0.43671215 0.27523446 -0.20429015
-0.3639135 -0.12907568 0.049747635 0.27177653 -0.20721005 0.11347055 0.10834609 -0.41917342
-0.028196445 0.12051972 0.10933561 0.30781254 0.3142152 0.21083534 0.110711984 0.050342623
-0.5599356 0.19828182 0.21766849 0.16407666 -0.44246143 0.19820818 0.27036673 0.20287216
-0.3969145 0.20582102 0.28531516 -0.36122116 0.11373995 0.2315881 0.1642797 0.14860088
0.07132535 0.32711002 0.38222077 -0.57056135 0.17915843 0.16960046 0.35216978 0.3240764
0.026784893 0.25035363 0.1836746 0.21416937 -0.1604935 0.19339016 0.32941833 -0.16134375
