checkpoint/checkpoint_dqn.pth (torch_old, 45448 bytes, 8 tensors)

model.0.weight f4 [64, 37]
-0.053265758 -0.16013178 -0.11965201 -0.10575439 -0.13852093 -0.013263593 -0.14614628 0.26165646
0.10559676 0.15465607 -0.026590956 -0.20256929 0.005364831 -0.12737828 -0.092011265 0.11396854
-0.13873814 0.000558428 -0.25011486 -0.41896415 0.029075902 0.030044533 -0.0031292038 0.13761349
0.011945753 0.018748878 0.13854244 -0.069220275 -0.23046574 0.07852643 -0.1507499 0.13037038
-0.07724432 -0.16633628 -0.089899264 -0.42316425 0.053815275 0.10570052 0.21751106 -0.093546316
-0.18606532 -0.22609393 0.060020886 -0.24878524 -0.23788537 0.2017565 0.04178647 0.0020713056
0.2510459 -0.20944455 -0.04665576 -0.4784181 -0.15940428 0.15546 0.1765611 -0.44080916
-0.7031322 -0.027322872 0.19569983 -0.6510894 -0.20863146 -0.6287 -0.09505008 0.014226996
0.011422709 -0.20156959 -0.81346047 0.0929794 0.111663334 0.068504766 -0.82678497 -0.57357144
0.06450384 0.02100184 0.12224224 0.08971917 -0.11813362 -0.81614506 -0.24558312 -0.49924695
0.023954405 0.4543022 -0.43163583 -0.2665532 -0.123453416 -0.29028398 0.10034391 -0.09719049
-0.48811817 -0.2674997 0.13702047 -0.2067777 0.085189246 -0.3167595 -0.5301512 -0.0013848388
0.18999436 -0.07434585 -0.0995839 -0.48049405 0.23806731 0.10597509 -0.022647334 0.04043965
-0.22381426 0.0019508771 -0.2463909 -0.41357523 -0.25360435 -0.038051415 0.04693798 0.13658047
-0.051704068 0.092242554 0.100880526 0.008220157 0.02913318 -0.20757924 0.16614537 0.17770708
0.51354307 0.2261677 -0.20501742 0.071005605 -0.26670256 -0.08699923 -0.1681507 0.09050938
-0.09487324 -0.26896223 -0.14877084 0.16079575 -0.20372616 -0.10639351 -0.045526072 -0.30828553
0.20512308 -0.15877776 -0.10528265 0.06983719 -0.24504448 -0.0139023 0.29614705 0.025608024
-0.28072903 -0.15448743 0.16591044 0.02096871 -0.080599666 0.011657841 -0.12962015 -0.14426449
-0.010140774 0.38870695 -0.41134563 -0.5583858 -0.7062077 -2.282649 0.04057707 0.14287129
-0.015863542 -0.07569512 0.031022178 -0.075824104 0.043339524 -0.008076023 0.005740176 0.16507423
-0.11807748 0.07684079 0.026680978 0.10862175 0.25511605 0.02326357 0.0007564684 0.10105717
0.037158243 0.07269562 0.102755465 0.12881593 0.03685961 -0.035937488 0.05403525 -0.030830082
-0.001767178 -0.037353862 -0.11080815 -0.032056056 0.012276936 -0.08260604 0.13576907 -0.36432114
-0.09485956 -0.26183167 -1.1689358 -0.17635277 0.1838786 -0.114834525 -0.15286468 0.32164204
0.034256265 0.23026593 -0.20850125 0.036128066 0.108741134 -0.058424413 0.06285012 0.13390858
0.14101376 0.57901436 -0.17196238 0.05439661 0.11126837 0.027184468 -0.17660952 -0.09459156
-0.07387935 0.16792269 -0.49559775 -0.6126959 -0.007697775 0.0010245733 -0.009676681 -0.045494407
0.06915799 0.10427999 0.14100426 -0.15712443 0.07136992 -0.03832317 0.0250699 0.40639707
-0.06314172 0.26263008 0.15934242 -0.041421626 0.25532776 -0.07728214 -0.1305878 -0.011300103
0.057616122 0.27233136 -0.018312586 -0.11566419 0.11635613 0.1430853 0.17592077 0.0043172445
-0.20186107 0.11439616 -0.21369399 -0.13014314 0.23478778 -0.20095918 -0.21596533 -0.5222753
00000000: 322d 5abd 96f9 23be 1d0c f5bd c295 d8bd
00000010: 6ed8 0dbe 8b4f 59bc 5fa7 15be d6f7 853e
00000020: 1d43 d83d 295e 1e3e 47d5 d9bc 536e 4fbe
00000030: 77cb af3b 746f 02be 6770 bcbd 5768 e93d
00000040: 5f11 0ebe 7863 123a 0e0f 80be 7882 d6be
00000050: 9630 ee3c f41f f63c 5413 4dbb 8dea 0c3e
00000060: 1fb8 433c 3f97 993c 12de 0d3e 5cc3 8dbd
00000070: 36ff 6bbe 77d2 a03d 2f5e 1abe d07f 053e
00000080: 4532 9ebd 0f54 2abe 1b1d b8bd fca8 d8be
00000090: 686d 5c3d 8479 d83d 38bb 5e3e 3695 bfbd
000000a0: e887 3ebe 2b85 67be 76d8 753d 8fc1 7ebe
000000b0: 3998 73be 4299 4e3e 4a28 2b3d bebe 073b
000000c0: 1789 803e a278 56be 1c1a 3fbd 38f3 f4be
000000d0: e03a 23be e830 1f3e 6fcc 343e bdb1 e1be
000000e0: 7900 34bf 37d4 dfbc 8965 483e cbad 26bf
000000f0: 7ca3 55be 7cf2 20bf 9ea9 c2bd 5918 693c
00000100: 5026 3b3c 4268 4ebe f23e 50bf fc6b be3d
00000110: bfaf e43d 3a4c 8c3d 2ea8 53bf 94d5 12bf
00000120: 971a 843d 0d0c ac3c 245a fa3d afbe b73d
00000130: 0af0 f1bd e2ee 50bf 247a 7bbe 4c9d ffbe
00000140: 073c c43c 4c9a e83e 5fff dcbe a979 88be
00000150: 25d5 fcbd 1aa0 94be 1c81 cd3d cf0b c7bd
00000160: a0ea f9be b8f5 88be 184f 0c3e 89bd 53be
00000170: b377 ae3d 4d2e a2be fdb7 07bf 7b83 b5ba
00000180: e28d 423e a342 98bd a5f2 cbbd 5103 f6be
00000190: ebc7 733e 7809 d93d e786 b9bc 0ca4 253d
000001a0: 912f 65be 93b4 ff3a e54d 7cbe 22c0 d3be
000001b0: 6ed8 81be cddb 1bbd 0a42 403d c0db 0b3e
000001c0: a5c7 53bd aae9 bc3d 739a ce3d d6ad 063c
000001d0: b5a8 ee3c a78f 54be 0322 2a3e d8f8 353e
000001e0: 8f77 033f 8198 673e 16f0 51be 636b 913d
000001f0: 3d8d 88be a72c b2bd b22f 2cbe fb5c b93d
00000200: e74c c2bd 6bb5 89be 6257 18be a4a7 243e
00000210: 979d 50be d7e4 d9bd 8c79 3abd 9ad7 9dbe
00000220: c90b 523e a396 22be 6e9e d7bd cd06 8f3d
00000230: f1ec 7abe 79c6 63bc 96a0 973e ebc7 d13c
00000240: b7bb 8fbe f431 1ebe 6de4 293e 92c6 ab3c
00000250: 7011 a5bd 8700 3f3c 25bb 04be 12ba 13be
00000260: 7d25 26bc 9904 c73e e59b d2be 5ff2 0ebf
00000270: 07ca 34bf ec16 12c0 2434 263d da4c 123e
00000280: 42f4 81bc 0b06 9bbd 3922 fe3c ab49 9bbd
00000290: c984 313d 4c51 04bc 1618 bc3b 3809 293e
000002a0: 9bd2 f1bd b45e 9d3d 1192 da3c 1475 de3d
000002b0: 929e 823e 3e93 be3c bc4d 463a 10f7 ce3d
000002c0: 3e33 183d 71e1 943d 7571 d23d 53e8 033e
000002d0: 1afa 163d 3033 13bd 1154 5d3d 5e8f fcbc
000002e0: a7a0 e7ba 5d00 19bd 62ef e2bd 364d 03bd
000002f0: 3425 493c 5b2d a9bd 0c07 0b3e 4d88 babe
00000300: bb45 c2bd cd0e 86be b09f 95bf d295 34be
00000310: ac4a 3c3e 5d2e ebbd 8f88 1cbe 44ae a43e
00000320: 4c50 0c3d d5ca 6b3e 5a81 55be 06fb 133d
00000330: acb3 de3d 704e 6fbd 90b7 803d 551f 093e
00000340: e965 103e 493a 143f e816 30be fbce 5e3d
00000350: ace0 e33d f6b1 de3c 20d9 34be 38b9 c1bd
00000360: 0f4e 97bd edf3 2b3e fdbe fdbe a3d9 1cbf
00000370: 9e3d fcbb fa4a 863a f18a 1ebc 5858 3abd
00000380: b4a2 8d3d bf90 d53d 6c63 103e 3ae5 20be
00000390: 652a 923d c2f8 1cbd 645f cd3c 4713 d03e
000003a0: 7250 81bd 7377 863e a92a 233e b9a9 29bd
000003b0: 52ba 823e 1946 9ebd cfb8 05be 1124 39bc
000003c0: e2fe 6b3d 046f 8b3e 4704 96bc 59e1 ecbd
000003d0: 1f4c ee3d f484 123e 9324 343e ac77 8d3b
000003e0: abb4 4ebe 8948 ea3d 99d2 5abe 3e44 05be
000003f0: 356c 703e 3ec8 4dbe 0426 5dbe d6b3 05bf

model.0.bias f4 [64]
0.062123466 -0.04057064 -0.09832126 -0.19405729 0.23520076 -0.048157237 -0.16443467 0.035063248
0.10559114 -0.18513617 0.12058533 0.19020426 0.18620943 0.08665339 -0.08984033 -0.101227805
-0.055488687 -0.018086914 -0.040735796 -0.14112632 -0.07942011 0.12921572 0.030729117 -0.02122356
-0.12578498 0.2029223 -0.16173603 -0.15438777 0.1548391 0.08363039 -0.040083967 -0.14009175
0.024264196 -0.04480712 -0.13619873 0.06251484 -0.15486372 -0.0062281177 -0.1257475 -0.1138995
-0.05257239 -0.074642815 -0.13035065 0.07745206 -0.09035438 -0.17155105 0.009423306 -0.085050605
-0.20449163 -0.007841449 -0.045613103 0.09374396 -0.14101224 0.034007136 -0.15167193 -0.08249283
0.12043024 -0.037926324 -0.20101467 0.050663363 -0.113811456 0.0020158761 0.011261778 -0.05217821
00000000: 2d75 7e3d 662d 26bd a85c c9bd f4b6 46be
00000010: 78d8 703e 8640 45bd 9061 28be 7b9e 0f3d
00000020: 2b40 d83d 5694 3dbe 71f5 f63d e8c4 423e
00000030: afad 3e3e 5577 b13d 35fe b7bd 8650 cfbd
00000040: 1b48 63bd 022b 94bc 94da 26bd 6b83 10be
00000050: 03a7 a2bd 2051 043e a1bb fb3c 08dd adbc
00000060: c7cd 00be ddca 4f3e 219e 25be d417 1ebe
00000070: 248e 1e3e 6946 ab3d 162f 24bd 3674 0fbe
00000080: b5c5 c63c ac87 37bd ae77 0bbe c807 803d
00000090: 9894 1ebe 3d15 ccbb f4c3 00be 2444 e9bd
000000a0: 2556 57bd 55de 98bd a47a 05be 309f 9e3d
000000b0: b80b b9bd 14ab 2fbe 3664 1a3c 032f aebd
000000c0: 4166 51be 6c79 00bc ced4 3abd d5fc bf3d
000000d0: 8365 10be 114b 0b3d e34f 1bbe 00f2 a8bd
000000e0: 21a4 f63d a258 1bbd cad6 4dbe 6384 4f3d
000000f0: fb15 e9bd ca1c 043b 5283 383c d2b8 55bd

model.2.weight f4 [64, 64]
-0.15369718 0.0040595876 0.37738502 -0.15846853 0.085036404 -0.1293472 -0.08131222 0.11664653
0.11858445 -0.05684226 -0.19492899 -0.19724904 -0.080162294 0.14414677 -0.004189643 -0.06627206
-0.22846885 0.15775155 -0.12040798 -0.38745853 -0.1107341 0.025277816 -0.32101828 0.011489481
-0.013986076 0.098104775 0.28073546 -0.10584103 -0.052236434 -0.34455433 0.3219633 0.048542358
-0.14427783 0.29939678 0.2169337 0.05687069 -0.2685035 0.048842706 0.25442305 -0.22354464
-0.25878164 -0.21673143 -0.41737518 -0.035543624 0.033504553 -0.053578597 -0.1697818 0.0024677971
-0.4465689 0.05488215 -0.057934016 -0.15892263 -0.33058852 -0.054578513 0.13601376 -0.04496742
0.000998945 -0.02683807 -0.1643984 0.1405092 -0.051839318 0.05787568 -0.39752167 -0.018203255
0.19766305 0.29050404 0.09951626 -0.25272825 0.1829602 0.059879415 -0.4096413 -0.12298559
-0.0692722 -0.20757139 0.0063266265 0.14261642 -0.3207145 0.2033583 -0.03085328 0.116112664
0.082598604 0.16590725 -0.046393696 -0.13504472 -0.105177596 -0.057375703 0.06905884 -0.2522138
-0.09358826 -0.05132676 0.10178517 -0.38477474 0.002121709 -0.32923767 0.013833919 -0.05773312
-0.08177242 0.16639364 -0.030834286 -0.1810449 0.2048493 -0.009232924 0.41330504 0.021106914
-0.3485777 0.058539495 -0.004511065 -0.07298067 -0.09303012 0.19534886 -0.20549949 0.261182
0.060243443 -0.11215164 -0.32800758 0.12542392 -0.07152749 0.17890309 0.27221632 0.03833916
-0.23723283 -0.037901502 0.059278917 0.3451223 -0.0037727235 -0.055971522 -0.048401 0.10051018
0.21474558 -0.49109867 0.44158056 -0.031272884 -0.058417615 -0.008671209 -0.103096634 -0.01758191
0.04961818 -0.06749911 -0.0041031325 0.10450702 0.119512916 0.2564346 0.065760404 0.14135495
-0.18531646 0.11668906 0.03959984 -0.06562427 0.12842928 -0.04904303 -0.061223116 0.08902802
-0.02603856 0.044562597 0.53372496 0.19361506 -0.20033911 0.26496708 0.019730536 0.40282932
-0.11026345 0.49364492 0.21991493 0.14759262 0.16841666 0.13097847 0.2563768 -0.43896264
0.37588012 -0.32347015 0.23058744 -0.24348609 -0.041614003 -0.037424546 -0.101672046 -0.31821603
-0.15438044 0.020480204 -0.064833485 -0.27794307 0.32849705 0.23886155 0.023241544 -0.10935981
-0.06507073 -0.18662483 0.08022726 0.2973158 -0.10551592 0.4063466 0.08005903 -0.073645204
-0.013009023 -0.35771608 0.14757843 0.032477945 -0.08103252 0.014965152 0.015992701 -0.18767479
0.11374829 -0.105964474 0.10985906 -0.02320955 -0.11783953 0.32888943 0.0037805778 0.15433311
-0.16536818 -0.24739568 0.102694064 0.09777332 0.10521722 -0.08591286 -0.03625715 0.1865032
-0.20601104 0.15866312 0.22003394 0.10632058 0.19243926 0.13829531 -0.06937541 0.11837458
-0.034761187 -0.1810774 -0.053227838 -0.12899074 -0.01326085 0.24344544 0.07148109 -0.11802481
0.11522549 -0.017380537 0.05555281 0.116155654 0.026268091 -0.07362007 0.09648461 -0.03648778
-0.027537493 -0.04737475 -0.61986 0.028195597 -0.13356242 0.15663928 -0.029066391 0.08149947
0.28840247 -0.12352546 -0.19076192 0.14235698 -0.06946414 0.056388464 0.0928866 0.15373355
00000000: cb62 1dbe 4a06 853b 9c38 c13e 9345 22be
00000010: 9127 ae3d 9873 04be 0587 a6bd 60e4 ee3d
00000020: 67dc f23d 6ed3 68bd 779b 47be a7fb 49be
00000030: 212c a4bd 369b 133e 4649 89bb a5b9 87bd
00000040: bdf3 69be 9f89 213e 7698 f6bd f760 c6be
00000050: 8fc8 e2bd 6c13 cf3c 825c a4be 603e 3c3c
00000060: db25 65bc 28eb c83d 8fbc 8f3e 2fc3 d8bd
00000070: dff5 55bd 6d69 b0be 60d8 a43e 5ad4 463d
00000080: 91bd 13be 894a 993e de23 5e3e 3ef1 683d
00000090: 4a79 89be 4a0f 483d bd43 823e e3e8 64be
000000a0: 077f 84be d8ee 5dbe 33b2 d5be 3196 11bd
000000b0: 123c 093d 3b75 5bbd 48db 2dbe c4ba 213b
000000c0: aea4 e4be 1bcc 603d 384c 6dbd 9dbc 22be
000000d0: e642 a9be b88d 5fbd 3147 0b3e c22f 38bd
000000e0: 08ef 823a 83db dbbc 0e58 28be a5e1 0f3e
000000f0: 7755 54bd 0d0f 6d3d f687 cbbe fe1e 95bc
00000100: 2f68 4a3e f2bc 943e 2ecf cb3d 9965 81be
00000110: eb59 3b3e 1e44 753d 81bc d1be dedf fbbd
00000120: 95de 8dbd 988d 54be 974f cf3b 0a0a 123e
00000130: b134 a4be 283d 503e 05c0 fcbc 7acc ed3d
00000140: 7529 a93d 97e3 293e 5107 3ebd 2a49 0abe
00000150: 5a67 d7bd c902 6bbd b96e 8d3d 2b22 81be
00000160: 34ab bfbd 023c 52bd be74 d03d 3201 c5be
00000170: 5f0c 0b3b d791 a8be a9a7 623c 9079 6cbd
00000180: 4c78 a7bd 1863 2a3e 2f98 fcbc d663 39be
00000190: 04c4 513e b145 17bc b89c d33e 68e8 ac3c
000001a0: c778 b2be 1cc7 6f3d 8ed1 93bb e476 95bd
000001b0: 9386 bebd 8809 483e 756e 52be a6b9 853e
000001c0: d4c1 763d c2af e5bd 9cf0 a7be 216f 003e
000001d0: 017d 92bd 5f32 373e f05f 8b3e 8609 1d3d
000001e0: 2aed 72be 9b3e 1bbd 73ce 723d dfb3 b03e
000001f0: cc3f 77bb 6542 65bd 2140 46bd 48d8 cd3d
00000200: 44e6 5b3e 4971 fbbe d916 e23e ff17 00bd
00000210: 4f47 6fbd b011 0ebc 5424 d3bd f007 90bc
00000220: 6f3c 4b3d f93c 8abd 9273 86bb c707 d63d
00000230: 30c3 f43d 654b 833e 64ad 863d 5abf 103e
00000240: 99c3 3dbe adfa ee3d 7133 223d 0466 86bd
00000250: f782 033e 58e1 48bd 17c5 7abd 5354 b63d
00000260: d14e d5bc 4587 363d 33a2 083f 0743 463e
00000270: b225 4dbe c4a9 873e efa1 a13c a53f ce3e
00000280: ced1 e1bd 07bf fc3e 6131 613e 8522 173e
00000290: 6b75 2c3e 381f 063e d243 833e b6bf e0be
000002a0: 5c73 c03e e19d a5be 1d1f 6c3e 6b54 79be
000002b0: 7273 2abd 7b4a 19bd 6f39 d0bd 36ed a2be
000002c0: e815 1ebe 1ac6 a73c 6bc7 84bd 8e4e 8ebe
000002d0: c430 a83e 1f98 743e 0d65 be3c 09f8 dfbd
000002e0: ce43 85bd 941a 3fbe 314e a43d c739 983e
000002f0: bb18 d8bd a90c d03e fdf5 a33d 4cd3 96bd
00000300: cc23 55bc 9026 b7be cd1e 173e 9807 053d
00000310: 61f4 a5bd 6630 753c 2003 833c d22d 40be
00000320: ddf4 e83d e703 d9bd c9fd e03d f421 bebc
00000330: da55 f1bd 3264 a83e 92c3 773b 8009 1e3e
00000340: 4756 29be 4b55 7dbe 4451 d23d 613d c83d
00000350: 207c d73d 15f3 afbd 6182 14bd b2fa 3e3e
00000360: 8ff4 52be 9678 223e 9450 613e 9bbe d93d
00000370: cc0e 453e 499d 0d3e b214 8ebd 5f6e f23d
00000380: bf61 0ebd 5b6c 39be 6f05 5abd 2616 04be
00000390: 0944 59bc c349 793e ad64 923d feb6 f1bd
000003a0: 57fb eb3d a161 8ebc 588b 633d 04e3 ed3d
000003b0: 2e30 d73c 1fc6 96bd b999 c53d 3674 15bd
000003c0: 4f96 e1bc 070c 42bd 25af 1ebf 74fa e63c
000003d0: 96c4 08be 0c66 203e a41c eebc 32e9 a63d
000003e0: 7da9 933e ebfa fcbd 1857 43be 07c6 113e
000003f0: 3743 8ebd 97f7 663d 543b be3d 546c 1d3e

model.2.bias f4 [64]
-0.25069594 -0.106253 0.08207733 0.061846495 0.1041859 -0.12844966 -0.25149804 -0.13508591
0.04041442 -0.025882253 -0.027565394 -0.07242398 -0.2469994 -0.23085327 -0.31738606 0.2944284
-0.197794 -0.19233613 -0.2965094 0.024453605 0.030603537 0.23329876 0.020814123 -0.31032103
-0.108481124 -0.28669173 0.05894381 -0.3917713 -0.09045032 0.16189487 0.043316584 -0.45597056
-0.015954414 0.113038145 0.07772029 -0.0025348351 -0.24079685 -0.08379392 0.07988169 -0.23258442
-0.37284014 0.0044404157 -0.12494944 -0.3012825 -0.080331095 -0.24661797 -0.12711309 -0.30679372
0.14472379 -0.4188152 -0.240185 0.2899899 -0.18102418 -0.079627015 -0.26252675 -0.23049249
-0.20306948 -0.32423344 -0.037447628 0.16817424 0.07534715 -0.14180787 0.031184873 -0.2535726
00000000: 385b 80be 2c9b d9bd 2918 a83d c052 7d3d
00000010: 6b5f d53d 4f88 03be 5ac4 80be f653 0abe
00000020: 9789 253d 0507 d4bc d2d0 e1bc 0653 94bd
00000030: 69ed 7cbe cd64 6cbe 6d80 a2be 52bf 963e
00000040: 838a 4abe c3f3 44be 14d0 97be ed52 c83c
00000050: 45b4 fa3c dfe5 6e3e 6182 aa3c 66e2 9ebe
00000060: 5a2b debd 42c9 92be 116f 713d 3f96 c8be
00000070: 043e b9bd c5c7 253e bb6c 313d f974 e9be
00000080: d5b2 82bc 8b80 e73d d12b 9f3d 7a1f 26bb
00000090: 7393 76be 269c abbd 0399 a33d 9c2a 6ebe
000000a0: e7e4 bebe e880 913b 7ee5 ffbd b341 9abe
000000b0: a184 a4bd 6c89 7cbe ef29 02be 1114 9dbe
000000c0: 7932 143e f26e d6be 0ef3 75be 8e79 943e
000000d0: 675e 39be 7d13 a3bd e869 86be 3906 6cbe
000000e0: 72f1 4fbe ed01 a6be af62 19bd de35 2c3e
000000f0: 9b4f 9a3d 1536 11be 6b77 ff3c 45d4 81be

model.4.weight f4 [64, 64]
0.27853924 0.41177082 0.27798063 -0.06232533 -0.012605476 -0.27051586 0.22989377 -0.04943145
-0.36933917 -0.032833498 -0.23130397 0.099714264 0.0883428 -0.1663187 -0.03855128 -0.2683378
0.2866848 0.073019676 -0.10973014 0.030591257 0.036757633 -0.05362678 0.21160714 -0.016145498
-0.35316947 -0.18057004 -0.34078288 -0.11516851 -0.29736924 0.11231575 0.21020533 0.104817174
0.46938792 -0.32127723 -0.07114323 -0.11704299 -0.04241121 -0.38939014 -0.05352146 0.25077546
0.11411168 0.064702354 -0.09755263 -0.108237535 0.22114466 0.0029254332 -0.011785481 -0.114242025
-0.05922661 0.3223793 -0.063377246 -0.17237198 0.07888108 -0.031165853 0.011082085 0.16486
-0.15339531 0.023368476 -0.20391017 0.026561197 -0.117577426 0.17130919 0.3718761 0.28600013
0.2703232 0.093813285 0.122094795 0.06765367 -0.26379743 -0.19871849 0.03781779 0.121376604
0.08100532 0.43294337 -0.1887543 0.026144959 -0.012682711 0.10853857 0.16508079 -0.09883363
-0.20467381 -0.074906416 -0.0773982 -0.1331991 -0.11162491 0.14346641 -0.05462279 0.1752756
-0.38936716 -0.28655365 0.124721885 0.036763415 0.067426994 0.08063515 0.34118026 0.1647828
-0.06647501 -0.31621403 0.0651934 -0.30421105 0.03907487 -0.37397307 -0.19923918 0.15731761
0.0048126504 -0.31388092 0.031585857 0.24078952 -0.18496656 -0.053828288 0.26530036 -0.11411083
-0.18850176 -0.09076911 0.19612809 0.004320997 0.07277001 -0.05628489 0.14383246 0.370762
-0.25058377 0.46006954 0.6391001 -0.14575821 0.08069353 0.014289552 -0.32186985 0.02392634
0.012676266 0.06168877 0.44358742 -0.06787564 -0.21477504 -0.23369509 0.41203877 -0.2009085
0.008160807 0.20565979 -0.621395 -0.16862148 0.2615933 -0.21594769 0.03761092 -0.024675943
-0.038138185 -0.1502172 0.045715835 -0.27053413 0.048360705 0.08108614 -0.2824826 0.020764219
0.0051315394 -0.22857662 0.12701719 -0.03033441 0.48304296 0.25830922 -0.2812958 0.03217413
-0.29151323 -0.21250124 0.12328664 0.2167039 0.11406175 -0.32961795 -0.008533738 -0.0931909
0.07588705 -0.22611949 -0.037519664 0.13237691 0.08841631 0.082168646 0.44311252 0.12759416
0.025290882 -0.039471522 0.24961382 -0.03650172 0.057772808 0.10438023 0.17383784 0.049826153
-0.09103833 -0.16532734 -0.21189041 -0.015386339 0.18380338 0.10358593 -0.42967084 0.12852472
0.21071497 0.42766047 0.060416598 -0.3140879 -0.28410968 -0.10183748 -0.09881381 -0.04249753
-0.25949863 -0.17608458 0.14302231 -0.3110949 0.25584903 -0.011071443 0.07184419 -0.4101847
0.054194003 0.07072399 0.050227962 0.4561573 0.25309604 -0.14618012 -0.24491075 0.3119493
0.16779578 0.065604 -0.14196461 0.06343103 0.08743018 0.09214075 -0.04760312 0.16035186
-0.13842657 0.08784508 -0.17355008 0.08228814 0.05150001 -0.22860211 -0.147534 0.25245705
-0.11629099 0.24821846 0.063637234 0.021940868 0.22194007 -0.29536176 0.2685446 -0.19028188
0.15498915 -0.15245667 0.05573718 -0.15387172 0.19511606 0.13117874 0.12266951 0.144089
-0.08617592 0.013553034 -0.36887205 -0.14913008 -0.1384701 -0.0018891329 -0.2714007 0.18621777
00000000: b29c 8e3e a0d3 d23e 7a53 8e3e d848 7fbd
00000010: 3387 4ebc 0e81 8abe 4669 6b3e a278 4abd
00000020: 061a bdbe 6b7c 06bd f3da 6cbe fe36 cc3d
00000030: 12ed b43d 734f 2abe f2e7 1dbd 9263 89be
00000040: 5ac8 923e 578b 953d 32ba e0bd 849a fa3c
00000050: 2c8f 163d c1a7 5bbd 8baf 583e 9043 84bc
00000060: a1d2 b4be 5ae7 38be 187b aebe 78dd ebbd
00000070: c840 98be cd05 e63d 1140 573e 63aa d63d
00000080: 9d53 f03e 737e a4be 8bb3 91bd 3cb4 efbd
00000090: 60b7 2dbd 255e c7be 5239 5bbd a465 803e
000000a0: 62b3 e93d ab82 843d acc9 c7bd a4ab ddbd
000000b0: bf73 623e a0b8 3f3b e417 41bc b9f7 e9bd
000000c0: 9a97 72bd e60e a53e eecb 81bd 4882 30be
000000d0: 678c a13d 884f ffbc a291 353c 0fd1 283e
000000e0: a913 1dbe 3f6f bf3c d4cd 50be de96 d93c
000000f0: 6fcc f0bd ad6b 2f3e 8b66 be3e 9c6e 923e
00000100: cd67 8a3e 2e21 c03d d60c fa3d 028e 8a3d
00000110: 7510 87be dc7c 4bbe d4e6 1a3d 4c94 f83d
00000120: 1ee6 a53d c1aa dd3e cf48 41be f42d d63c
00000130: 25cb 4fbc 7849 de3d f00a 293e 4969 cabd
00000140: 0396 51be 8968 99bd f382 9ebd 5865 08be
00000150: 9a9b e4bd dce8 123e 26bc 5fbd 727b 333e
00000160: 225b c7be 29b7 92be 306e ff3d 3c95 163d
00000170: 2a17 8a3d 0b24 a53d 2eaf ae3e d3bc 283e
00000180: 0d24 88bd cee6 a1be 1e84 853d 8dc1 9bbe
00000190: f90c 203d 6679 bfbe 5b05 4cbe de17 213e
000001a0: 70b3 9d3b 00b5 a0be 2c60 013d 8791 763e
000001b0: e067 3dbe 0d7b 5cbd 73d5 873e f0b2 e9bd
000001c0: 9b06 41be 28e5 b9bd cdd5 483e 2697 8d3b
000001d0: 7108 953d fc8a 66bd d148 133e 84d4 bd3e
000001e0: 844c 80be 3c8e eb3e 109c 233f a441 15be
000001f0: a642 a53d ba1e 6a3c 20cc a4be 2c01 c43c
00000200: 1db0 4f3c 5dad 7c3d e41d e33e 6202 8bbd
00000210: fded 5bbe c44d 6fbe bff6 d23e f5ba 4dbe
00000220: e8b4 053c 7b98 523e be13 1fbf 1cab 2cbe
00000230: 8fef 853e 6421 5dbe e80d 1a3d 3425 cabc
00000240: c936 1cbd 8ad2 19be 8740 3b3d 7383 8abe
00000250: e015 463d 7d10 a63d 8fa1 90be b919 aa3c
00000260: 7926 a83b fd0f 6abe cb10 023e de7f f8bc
00000270: 6851 f73e 1b41 843e 0106 90be 05c9 033d
00000280: 3941 95be ed99 59be b57d fc3d a1e7 5d3e
00000290: 3599 e93d afc3 a8be 17d1 0bbc dfda bebd
000002a0: ab6a 9b3d de8b 67be 38ae 19bd d08d 073e
000002b0: 9c13 b53d 0948 a83d a5df e23e 0ba8 023e
000002c0: d32e cf3c e4ac 21bd c49a 7f3e d482 15bd
000002d0: 2ea3 6c3d 4dc5 d53d 8c02 323e 8216 4c3d
000002e0: 4e72 babd 924b 29be cdf9 58be fc16 7cbc
000002f0: f436 3c3e dc24 d43d d1fd dbbe fc9b 033e
00000300: aac5 573e 50f6 da3e 6577 773d 21d0 a0be
00000310: d376 91be 2b90 d0bd e55e cabd e411 2ebd
00000320: 01dd 84be 844f 34be 7174 123e d547 9fbe
00000330: a5fe 823e ff64 35bc 0c23 933d bb03 d2be
00000340: 88fa 5d3d bdd7 903d d6bb 4d3d 738d e93e
00000350: ce95 813e 3eb0 15be e2c9 7abe d2b7 9f3e
00000360: a8d2 2b3e 645b 863d 2c5f 11be 21e8 813d
00000370: 980e b33d 4ab4 bc3d 7dfb 42bd 4733 243e
00000380: b2bf 0dbe 1fe8 b33d 1db7 31be af86 a83d
00000390: adf1 523d ac16 6abe 2713 17be 0d42 813e
000003a0: f829 eebd fb2c 7e3e 3d54 823d 56bd b33c
000003b0: 4244 633e a839 97be ae7e 893e 41d9 42be
000003c0: 7ab5 1e3e 9a1d 1cbe ab4c 643d 8c90 1dbe
000003d0: 81cc 473e b853 063e 273a fb3d 118c 133e
000003e0: 007d b0bd 8b0d 5e3c ccdc bcbe 8eb5 18be
000003f0: 1bcb 0dbe c89c f7ba 08f5 8abe dfaf 3e3e

model.4.bias f4 [64]
0.038738966 0.09734382 0.07779575 0.15575813 -0.22153828 0.21381247 -0.47184175 -0.26091197
-0.61679584 0.75146425 0.41312486 0.18525444 0.39574543 0.0058754557 -0.5230062 -0.52678627
-0.6424413 -0.12641355 -0.12638885 0.72354513 0.22377607 0.32839882 0.09337168 -0.6088657
-0.80448747 0.107093595 -0.4027326 0.20269741 0.5309898 0.67165476 -0.44576743 -0.554866
-0.111738935 -0.28958753 0.33205113 0.04722335 -0.5083402 0.5401712 0.6247837 -0.247803
-0.26856533 0.27770764 0.08418912 0.12711135 0.2310561 0.36544427 -0.31706262 0.07087221
-0.3353946 0.6974147 -0.26838645 0.5469568 -0.38458756 -0.11693689 -0.17937526 0.13029917
0.09324632 -0.6397507 0.77605647 -0.47675565 0.028274747 0.46677002 -0.58724034 0.19218059
00000000: c0ac 1e3d 325c c73d 6153 9f3d 0f7f 1f3e
00000010: eeda 62be a8f1 5a3e 3e95 f1be 4196 85be
00000020: 55e6 1dbf f65f 403f 1a85 d33e 57b3 3d3e
00000030: 259f ca3e e586 c03b bce3 05bf 77db 06bf
00000040: 0877 24bf 8e72 01be 146c 01be 413a 393f
00000050: 8e25 653e e423 a83e a739 bf3d 9fde 1bbf
00000060: e4f2 4dbf e353 db3d f832 cebe e98f 4f3e
00000070: f3ee 073f 91f1 2b3f a13b e4be b30b 0ebf
00000080: 62d7 e4bd d144 94be 9b02 aa3e 456d 413d
00000090: 9522 02bf a948 0a3f d3f1 1f3f 12c0 7dbe
000000a0: 6581 89be b22f 8e3e 586b ac3d 7a29 023e
000000b0: f899 6c3e 831b bb3e 0856 a2be 7325 913d
000000c0: d7b8 abbe c589 323f f369 89be 5c05 0c3f
000000d0: a9e8 c4be 9c7c efbd 26ae 37be 256d 053e
000000e0: edf7 be3d b4c6 23bf a3ab 463f 5119 f4be
000000f0: 71a0 e73c 7bfc ee3e 6255 16bf fdca 443e

model.6.weight f4 [4, 64]
0.07232222 0.07726802 0.097655304 0.31669682 -0.144663 0.41519165 -0.29243913 -0.35143048
-0.21355455 0.33167017 0.19029444 0.1313347 0.29969102 -0.025294872 -0.29258034 -0.18039921
-0.22212833 -0.048552215 -0.0899256 0.2671444 0.11548348 0.1605616 0.29129812 -0.19700624
-0.36265776 0.22357705 -0.1564851 0.1294181 0.19519918 0.28385365 -0.3758917 -0.26839903
-0.02817221 -0.14062299 0.24898578 0.18229751 -0.35922772 0.1671016 0.20637822 -0.076587066
-0.488602 0.22175226 -0.02904485 -0.15014663 0.29687122 0.12959015 -0.269823 0.33604068
-0.30897522 0.3155443 -0.1144172 0.16678077 -0.29884428 -0.38345817 -0.09395055 0.18071997
0.3119836 -0.29037863 0.26177052 -0.24808687 0.079049125 0.29426935 -0.22451133 0.122278534
0.10423169 0.18747225 0.23002116 0.19637838 -0.18577477 0.24172409 -0.23941435 -0.15053625
-0.2872653 0.18342234 0.18591413 0.06575351 0.30672002 0.16853449 -0.33864152 -0.17318694
-0.11473303 0.015385406 -0.06190178 0.24572256 0.18129246 0.19419396 0.34617516 -0.3579885
-0.37683663 0.11540118 -0.21462859 0.2595459 0.27370808 0.28084967 -0.22576034 0.071044534
0.29595408 -0.15169436 0.21238385 0.17685843 -0.23964591 0.3145199 0.24946685 -0.16674486
0.22720025 0.12841281 0.16971152 0.058126453 0.2920224 0.10684952 -0.00038687687 0.26281247
-0.22541392 0.212916 -0.23841433 0.27426755 -0.30757332 -0.069776006 -0.1457383 0.32121554
0.3618539 -0.26674834 0.24981909 -0.33801 0.06234024 0.27523935 -0.44704843 0.29459405
0.3084193 0.28268927 0.23604886 0.038440287 -0.4622259 0.21361633 -0.33891952 -0.3336714
-0.41312876 0.32351077 0.12890552 0.23832585 0.12429844 0.20552571 -0.3741537 -0.1686805
-0.3750564 0.13651904 0.2885808 0.32160044 0.306915 0.11310223 -0.42028272 -0.21251795
-0.32897928 0.26737884 -0.25388762 0.29710594 0.1642651 0.21598957 -0.45446968 -0.1805527
0.29849768 -0.26770225 0.08966941 0.10411755 -0.25580734 0.1768665 0.19610813 -0.3141858
-0.15540633 0.10360973 0.35946223 0.34856305 -0.12256761 0.14516304 -0.004040133 -0.08438754
-0.09715615 0.28287277 -0.12484896 0.1738079 -0.23234445 -0.050431374 -0.22868331 0.2730757
0.107521 -0.2345464 0.24711992 -0.20264295 -0.20374021 0.22172503 -0.30792695 0.36338302
0.22633496 0.31721097 0.28837118 0.108632706 -0.611749 0.08556963 -0.3201389 -0.045614738
-0.30937776 0.33050698 0.19211209 0.2320798 0.0195445 0.24091929 -0.2893133 -0.2703783
-0.41466874 0.1239043 -0.0127206575 0.27671245 0.19278045 0.21627727 0.41791993 -0.24189405
-0.23574013 0.16302563 -0.40374997 -0.099676415 0.17832276 0.21082015 -0.23535928 -0.32061008
-0.1565589 -0.40078512 0.37809965 0.22566232 -0.17198126 0.15118764 0.18930778 -0.21997884
-0.26020747 0.26457095 -0.19699775 0.2603048 -0.33365005 0.19171563 0.03545401 0.098033845
-0.03063172 0.21828492 -0.22298793 0.25896057 -0.61760944 -0.25487912 -0.1653323 0.19297078
0.31091484 -0.24435465 0.31403053 -0.084698424 0.25508434 0.26196855 -0.17563589 0.07370179
00000000: ac1d 943d b23e 9e3d 81ff c73d 1626 a23e
00000010: 8a22 14be 0094 d43e 95ba 95be b2ee b3be
00000020: 0bae 5abe acd0 a93e 8cdc 423e 9b7c 063e
00000030: 1a71 993e 3137 cfbc 17cd 95be 92ba 38be
00000040: 9c75 63be b0de 46bd ea2a b8bd 27c7 883e
00000050: 9a82 ec3d 436a 243e 0725 953e 01bc 49be
00000060: 47ae b9be 62f1 643e a13d 20be 2e86 043e
00000070: 4be2 473e 4455 913e e074 c0be 996b 89be
00000080: 68c9 e6bc 79ff 0fbe 21f6 7e3e 33ac 3a3e
00000090: b2ec b7be af1c 2b3e d054 533e aed9 9cbd
000000a0: 0b2a fabe 0613 633e 77ef edbc 0ac0 19be
000000b0: 81ff 973e 48b3 043e 3e26 8abe 860d ac3e
000000c0: 0032 9ebe 068f a13e 9153 eabd 94c8 2a3e
000000d0: 1e02 99be a154 c4be 2569 c0bd a80e 393e
000000e0: 50bc 9f3e 82ac 94be c906 863e 7c0a 7ebe
000000f0: 82e4 a13d 79aa 963e 4ce6 65be 2b6d fa3d
00000100: 6d77 d53d baf8 3f3e ab8a 6b3e 6a17 493e
00000110: be3b 3ebe 8586 773e 0929 75be 2d26 1abe
00000120: 7014 93be 11d3 3b3e 4660 3e3e c7a9 863d
00000130: 680a 9d3e 4e94 2c3e 6c62 adbe eb57 31be
00000140: 27f9 eabd 1213 7c3c b98c 7dbd b29e 7b3e
00000150: bba4 393e c8da 463e df3d b13e 454a b7be
00000160: bbf0 c0be 7457 ec3d 99c7 5bbe 33e3 843e
00000170: 7723 8c3e 87cb 8f3e b82d 67be cc7f 913d
00000180: 4b87 973e c455 1bbe 277b 593e 601a 353e
00000190: bd65 75be c108 a13e 3d74 7f3e 2abf 2abe
000001a0: 2fa7 683e a67e 033e dbc8 2d3e 0116 6e3d
000001b0: f683 953e ecd3 da3d bcd5 cab9 5b8f 863e
000001c0: e8d2 66be a706 5a3e e322 74be cc6c 8c3e
000001d0: 407a 9dbe b9e6 8ebd 6c3c 15be 5d76 a43e
000001e0: ea44 b93e 3d93 88be 93d0 7f3e a60f adbe
000001f0: 7b58 7f3d 2cec 8c3e 88e3 e4be 08d5 963e
00000200: 22e9 9d3e a6bc 903e cbb6 713e 9073 1d3d
00000210: e0a8 ecbe 3dbe 5a3e dc86 adbe fad6 aabe
00000220: 9d85 d3be 34a3 a53e cfff 033e b10b 743e
00000230: 2e90 fe3d 5575 523e 1391 bfbe 95ba 2cbe
00000240: 6407 c0be a6cb 0b3e ddc0 933e d0a8 a43e
00000250: f623 9d3e 24a2 e73d 4c2f d7be 4e9e 59be
00000260: f96f a8be e1e5 883e 8ffd 81be 451e 983e
00000270: 1c35 283e 5f2c 5d3e 40b0 e8be cfe2 38be
00000280: b0d4 983e 4510 89be 98a4 b73d 953b d53d
00000290: 2ef9 82be 7e1c 353e 92d0 483e f6dc a0be
000002a0: d622 1fbe 5731 d43d 6f0b b83e db76 b23e
000002b0: ba04 fbbd 9fa5 143e 1863 84bb 60d3 acbd
000002c0: cef9 c6bd b3d4 903e d0b0 ffbd b3fa 313e
000002d0: b4eb 6dbe 2191 4ebd f52b 6abe 94d0 8b3e
000002e0: f833 dc3d ee2c 70be 010d 7d3e a281 4fbe
000002f0: 46a1 50be e30b 633e 9aa8 9dbe 570d ba3e
00000300: 5ac4 673e 7a69 a23e 63a5 933e d37a de3d
00000310: 959b 1cbf 213f af3d 3fe9 a3be 85d6 3abd
00000320: c366 9ebe 3638 a93e 08b9 443e 54a6 6d3e
00000330: ca1b a03c 8cb3 763e df20 94be 066f 8abe
00000340: 764f d4be 8ac1 fd3d 4e6a 50bc 41ad 8d3e
00000350: 3d68 453e ca77 5d3e 9af9 d53e 13b3 77be
00000360: dc65 71be 31f0 263e 51b8 cebe 2623 ccbd
00000370: 3e9a 363e 3de1 573e 0602 71be 0127 a4be
00000380: fa50 20be b533 cdbe 4796 c13e 0614 673e
00000390: db1b 30be efd0 1a3e e6d9 413e 2242 61be
000003a0: ea39 85be d875 873e c7b9 49be ac46 853e
000003b0: 2ed4 aabe 1a51 443e 3938 113d f8c5 c83d
000003c0: 5fef fabc 1586 5f3e f356 64be 7b96 843e
000003d0: a71b 1ebf 847f 82be df4c 29be 229a 453e
000003e0: 3b30 9f3e 1b38 7abe 9cc8 a03e 5e76 adbd
000003f0: 6a9a 823e be20 863e e5d9 33be f7f0 963d

model.6.bias f4 [4]
0.43901393 0.3614703 0.44609576 0.3896183
00000000: 6fc6 e03e a312 b93e aa66 e43e 0d7c c73e
