checkpoint/checkpoint_ddqn.pth (torch_old, 45448 bytes, 8 tensors)

model.0.weight f4 [64, 37]
-0.027632752 -0.014173248 0.0059799342 -0.054337695 0.0036648798 0.12591974 -0.02327672 0.124957584
0.08058833 0.17589018 0.19183652 -0.30600783 -0.14433461 -0.8632273 -2.213676 0.025265126
0.034206137 0.036407914 0.039898954 0.038679324 0.031110816 0.043403808 0.06345991 0.2193836
0.13264556 0.032017875 -0.022238592 -0.00032731346 -0.15976399 -0.03384433 -0.05764389 0.11365518
0.06762267 -0.0832298 -0.012778297 0.010619438 0.0010075637 0.10497122 -0.042806894 0.22311774
0.09451419 -0.04350203 -0.054348256 -0.078758106 -0.10840666 -0.020213809 -0.055370465 -0.11218397
0.029219547 0.34865773 -0.2941694 -0.039982133 0.20028725 -0.20336992 -0.08317002 0.16184665
0.0054956945 0.08730407 -0.39006132 -0.07108029 -0.15714864 0.024248365 -0.023701502 0.12347456
0.16322124 -0.30097118 -0.6239895 -0.06520068 0.05155952 0.2899433 0.05225072 -0.19600245
-0.0035372665 -0.0073423125 -0.07735288 0.0797784 0.10271385 0.11671166 -0.07455702 -0.50133497
0.13284574 0.13500488 0.12992755 -0.41982144 -0.09915108 0.09491195 0.11173098 -0.24569328
-0.33600256 -0.42023712 0.25903267 0.21516557 -0.032312352 -0.12923907 -0.0862755 -0.044563882
0.02594236 -0.2543278 -0.18592358 -0.30411136 0.20560527 0.30938107 -0.10319965 -0.08993889
-0.6394665 0.16884004 0.10218209 -0.23816869 -0.03394047 0.027663631 -0.017793756 0.3824805
-0.57345563 -0.6127896 -0.36599103 -2.228638 0.009575226 0.019468706 0.09481745 0.11943143
0.15861209 0.0066959457 -0.044656426 0.11127764 0.07606132 0.15250632 -0.0137541555 0.027324775
-0.06593911 0.031632055 0.09861892 0.12553066 0.0033867587 0.055365484 -0.026600515 0.0046340055
0.056467347 0.09069939 0.020067744 0.16616262 0.17337994 0.07673004 0.1648097 0.049098328
-0.062200483 -0.035994384 0.04315908 0.01172307 -0.052403715 -0.0033049486 -0.026487023 -0.24744453
-0.011054107 0.0611695 0.059707258 0.0904474 -0.077038154 0.06306934 -0.04671498 0.015630957
-0.028319705 0.03481622 -0.051454484 0.020103784 -0.043858517 -0.055274416 0.08976876 0.25117758
0.024873732 -0.13549241 0.053891722 0.15963045 0.26739192 0.41461435 -0.20483908 -0.07937912
-0.6017903 -1.9066145 -0.021363001 -0.10641085 0.03259953 0.31619802 0.42227882 -0.048094615
0.0017050295 -0.0025101511 0.03875356 0.07719356 0.107271135 0.14481378 0.18002062 0.2454814
0.0712795 -0.16216946 -0.45249498 -0.0042588823 0.01731205 0.07310165 -0.019792745 0.05935171
0.08492354 -0.00050701987 0.06123953 -0.03597699 -0.02905418 0.17277876 0.0834195 0.17865741
0.13287777 -0.16091275 0.10078829 -0.012151698 0.054850355 0.13996375 0.116488986 0.38903606
-0.48731834 -0.7454925 -0.4448131 -1.7964427 -0.019196117 0.00176525 0.098142624 0.08481231
0.04362348 0.0868976 0.030839743 -0.018942442 -0.053603157 0.036785487 0.13841158 0.2559703
0.11160356 0.1044531 0.15417407 0.17360201 0.11055165 0.0145743 -0.001431781 0.05169944
0.10629095 0.06536298 0.019354034 0.03982554 0.09343578 0.09936347 0.14717805 -0.02164813
0.07723622 -0.006098401 -0.021739336 -0.045310482 0.4067491 -0.12141868 -0.4723406 -0.83731985
00000000: 155e e2bc e936 68bc 53f3 c33b 3491 5ebd
00000010: 7b2e 703b 1bf1 003e d2ae bebc c3e9 ff3d
00000020: 7f0b a53d 8e1c 343e cb70 443e 0fad 9cbe
00000030: 74cc 13be 77fc 5cbf deac 0dc0 cff8 ce3c
00000040: bc1b 0c3d 7720 153d 166d 233d 366e 1e3d
00000050: 1cdc fe3c 31c8 313d 45f7 813d 18a6 603e
00000060: 3dd4 073e 2d25 033d b52d b6bc 459b abb9
00000070: 2c99 23be 5aa0 0abd 001c 6cbd 0cc4 e83d
00000080: c17d 8a3d 6374 aabd 105c 51bc 27fd 2d3c
00000090: 3a10 843a 27fb d63d 4856 2fbd fa78 643e
000000a0: a890 c13d 2f2f 32bd 479c 5ebd ee4b a1bd
000000b0: 5004 debd 6e97 a5bc 24cc 62bd b6c0 e5bd
000000c0: d55d ef3c 4483 b23e 5f9d 96be 4ec4 23bd
000000d0: 1a18 4d3e 3440 50be 0b55 aabd 21bb 253e
000000e0: 3a15 b43b 7acc b23d 1eb6 c7be 8b92 91bd
000000f0: 93eb 20be 82a4 c63c a729 c2bc 3be0 fc3d
00000100: 7823 273e e518 9abe c7bd 1fbf ef87 85bd
00000110: 1330 533d 7373 943e da04 563d deb4 48be
00000120: 7cd1 67bb c897 f0bb 306b 9ebd dc62 a33d
00000130: a45b d23d 8606 ef3d 5ab1 98bd 7d57 00bf
00000140: b708 083e b83e 0a3e ba0b 053e d6f2 d6be
00000150: b90f cbbd 3261 c23d 36d3 e43d 0597 7bbe
00000160: 8708 acbe 5229 d7be ee9f 843e 5d54 5c3e
00000170: f559 04bd 3f57 04be 36b1 b0bd 9e88 36bd
00000180: 1285 d43c 4137 82be c062 3ebe 7cb4 9bbe
00000190: 308a 523e 3267 9e3e 575a d3bd e131 b8bd
000001a0: 14b4 23bf 67e4 2c3e d844 d13d 7ee2 73be
000001b0: 2a05 0bbd d79e e23c 36c4 91bc 7cd4 c33e
000001c0: fdcd 12bf c7df 1cbf 2d63 bbbe 01a2 0ec0
000001d0: 69e1 1c3c d67c 9f3c a72f c23d 7798 f43d
000001e0: 356b 223e aa69 db3b a8e9 36bd 88e5 e33d
000001f0: 0ac6 9b3d 9e2a 1c3e 1c59 61bc 35d8 df3c
00000200: 160b 87bd 9d90 013d b7f8 c93d 1c8b 003e
00000210: 62f4 5d3b ebc6 623d 53e9 d9bc dbd8 973b
00000220: 4e4a 673d 9ac0 b93d 1c65 a43c 8926 2a3e
00000230: 838a 313e a424 9d3d e0c3 283e 541b 493d
00000240: efc5 7ebd d96e 13bd 93c7 303d 1f12 403c
00000250: 47a5 56bd d697 58bb 50fb d8bc 1962 7dbe
00000260: 491c 35bc df8c 7a3d 998f 743d 7d3c b93d
00000270: 2ec6 9dbd 802a 813d 3558 3fbd 7e0c 803c
00000280: bafe e7bc 749b 0e3d f0c1 52bd b1b0 a43c
00000290: fda4 33bd 6d67 62bd afd8 b73d 599a 803e
000002a0: ffc3 cb3c 86be 0abe 91bd 5c3d 2a76 233e
000002b0: 98e7 883e 5548 d43e 56c1 51be 8591 a2bd
000002c0: ee0e 1abf f20b f4bf 7601 afbc efed d9bd
000002d0: 1687 053d b5e4 a13e ee34 d83e dcfe 44bd
000002e0: 4c7b df3a 5981 24bb 0ebc 1e3d a817 9e3d
000002f0: f8b0 db3d 104a 143e 5357 383e 7a5f 7b3e
00000300: fdfa 913d c00f 26be 6cad e7be 188e 8bbb
00000310: 00d2 8d3c 51b6 953d 6524 a2bc c71a 733d
00000320: 65ec ad3d 87e9 04ba 4dd6 7a3d 9c5c 13bd
00000330: 0803 eebc eaec 303e d8d7 aa3d f8f1 363e
00000340: 1c11 083e 50c6 24be 176a ce3d ea17 47bc
00000350: c4aa 603d a852 0f3e c791 ee3d bc2f c73e
00000360: ca81 f9be 99d8 3ebf 8bbe e3be d6f1 e5bf
00000370: 2d41 9dbc f65f e73a 00ff c83d 14b2 ad3d
00000380: 89ae 323d 5ef7 b13d a1a3 fc3c 2e2d 9bbc
00000390: fc8e 5bbd 61ac 163d c4bb 0d3e 8a0e 833e
000003a0: 6890 e43d 82eb d53d cfdf 1d3e bac4 313e
000003b0: e768 e23d 0bc9 6e3c 99aa bbba cbc2 533d
000003c0: 12af d93d 07dd 853d 5a8c 9e3c 1b20 233d
000003d0: 425b bf3d 137f cb3d d8b5 163e 6b57 b1bc
000003e0: 062e 9e3d 18d5 c7bb b116 b2bc 7c97 39bd
000003f0: 6b41 d03e 5baa f8bd a1d6 f1be 985a 56bf

model.0.bias f4 [64]
0.14655952 -0.050500512 -0.16090119 -0.10303116 0.14523773 0.12404867 -0.025369253 0.10516268
0.08331624 -0.12166357 0.16286993 0.20179197 0.10202015 0.15403804 -0.15377763 -0.093758695
0.019687777 -0.031431366 0.037058722 -0.12194823 -0.07873844 0.013470092 0.033512134 -0.04686464
-0.16919711 0.08519081 -0.044790395 -0.18464394 -0.016514273 0.13228357 -0.20049809 -0.039518304
0.06493111 -0.0036547887 -0.06359615 0.03391799 -0.116468936 -0.018077573 0.018483443 -0.24275765
-0.12735593 -0.019200776 -0.056075383 0.11360504 0.013469141 0.007105853 0.02101871 -0.12289195
-0.11829628 0.06573714 -0.114711516 0.077447206 0.10626952 -0.09935599 -0.19504039 -0.08549426
0.07704041 -0.048281167 -0.18552527 -0.058629695 -0.026329841 0.07452016 -0.0023592594 0.05148355
00000000: b313 163e a0d9 4ebd 48c3 24be 0002 d3bd
00000010: 33b9 143e 3b0d fe3d 2ed3 cfbc 885f d73d
00000020: b4a1 aa3d c02a f9bd 60c7 263e 8ea2 4e3e
00000030: f1ef d03d 26bc 1d3e e277 1dbe 8f04 c0bd
00000040: 4348 a13c 2dbe 00bd e3ca 173d febf f9bd
00000050: 9f41 a1bd a9b1 5c3c 0544 093d 23f5 3fbd
00000060: 0242 2dbe 8578 ae3d 2276 37bd 4d13 3dbe
00000070: f148 87bc 5875 073e 5f4f 4dbe f2dd 21bd
00000080: 9afa 843d 2e85 6fbb b33e 82bd 97ed 0a3d
00000090: 4487 eebd 6b17 94bc 976a 973c 7695 78be
000000a0: 9869 02be f24a 9dbc 4daf 65bd c2a9 e83d
000000b0: acad 5c3c 37d8 e83b 6e2f ac3c c6ae fbbd
000000c0: 5245 f2bd 32a1 863d dfed eabd a49c 9e3d
000000d0: d6a3 d93d 277b cbbd abb8 47be 9d17 afbd
000000e0: 5dc7 9d3d 79c2 45bd 56fa 3dbe b125 70bd
000000f0: aeb1 d7bc 079e 983d ce9d 1abb 6ae0 523d

model.2.weight f4 [64, 64]
0.41681105 0.09513063 0.18532407 -0.025113318 -0.26872572 -0.27252558 -0.3158154 0.08010292
-0.33791265 -0.020515183 0.0642171 -0.27185464 0.029536616 -0.18335432 -0.041770678 -0.091294214
-0.085968405 0.24315795 -0.19452989 0.05015351 -0.2690673 -0.029878229 -0.16788884 -0.03893269
-0.1358468 0.045960408 0.00953162 0.091478646 -0.039597187 0.62799823 0.06636113 0.049904365
0.029068634 0.30905893 -0.22329581 -0.02109833 -0.086405404 -0.0033942591 0.14055769 -0.10655535
-0.13220093 -0.12058159 0.029300848 0.0651888 0.03453523 -0.713879 -0.10978875 0.19813326
-0.05129968 -3.008362e-05 -0.20572945 -0.015651722 -0.007322034 -0.052258555 0.043813575 0.03787742
-0.24419007 -0.01883627 -0.0688544 0.12017657 0.060315024 0.21498318 -0.121971235 -0.26220894
0.02411534 -0.018565835 -0.004947317 0.20157737 -0.07960453 0.122359715 -0.32871845 -0.12790981
-0.06053169 -0.049948838 -0.020069519 0.3679291 -0.12667446 0.48444018 0.14818849 -0.11088514
0.012149904 0.18477906 -0.16235894 -0.10407471 -0.108450584 0.1974491 0.004813922 -0.061201327
-0.02780326 -0.027232679 -0.10393165 0.1490458 0.045950215 -0.18392304 0.343128 -0.0032234006
-0.15361695 0.022530796 -0.10555429 -0.06296983 -0.23769231 0.010749985 0.031040289 -0.23258826
-0.023887709 -0.05497518 0.06780726 -0.16543972 -0.090440914 -0.07599887 0.03418754 0.012057846
-0.08307187 -0.046660617 0.10822302 0.051650345 0.114537835 0.30861095 0.092153035 0.08121445
-0.1248112 -0.15524246 0.30635005 0.12569736 0.031209784 0.060352754 -0.14864592 -0.26139173
0.12417426 0.06898507 0.2080539 0.0798434 -0.042187996 -0.17601623 -0.093054414 -0.2397726
0.09499123 -0.34273618 -0.04573427 0.20850015 0.06310034 0.15827768 0.10373021 0.19385536
-0.23854534 0.11275591 0.18243682 -0.102819555 -0.07824058 0.07721091 0.009272491 0.07307508
-0.019558597 -0.06722953 -0.101260655 0.10798896 -0.08323644 0.14486088 0.07069005 0.16534221
0.27371648 -0.08280676 -0.07419402 -0.08587106 0.21927795 0.08107831 -0.011928768 0.5175573
-0.16176306 -0.11325017 -0.030750955 -0.26363003 -0.25084448 -0.27937895 -0.0712788 -0.12521607
-0.040399335 -0.4206771 -0.12781875 -0.06697994 -0.14380085 0.39151335 -0.2370365 -0.042709116
0.09750521 -0.3334075 0.18225558 -0.16896833 0.0030961582 0.22570273 0.06470527 0.2522095
-0.02947642 -0.10086932 -0.07138057 -0.21922287 -0.16346987 -0.021315718 -0.38360152 -0.08297326
-0.32093787 -0.051305708 -0.14781244 0.3064212 -0.37573943 0.7410447 -0.12575185 -0.11329685
-0.011468676 0.09637649 -0.13265432 0.037928082 0.06366809 0.21700859 -0.026431873 -0.0040263752
0.0464939 -0.10492183 0.033761244 0.15863536 -0.03734388 -0.091609605 0.08645336 -0.05764449
0.024487743 0.034544494 -0.10716404 0.040994283 -0.08437998 0.092116445 -0.16783358 -0.097391434
0.10036293 -0.03434365 -0.00901625 -0.05445409 -0.011373892 0.016557552 0.06891068 -0.14865597
0.028881013 0.019741518 -0.11162956 0.12352032 0.12136879 0.1032246 -0.21494114 -0.034423664
-0.1148357 -0.144188 0.007902884 0.05690371 -0.15462539 0.051007178 -0.11491769 -0.17150064
00000000: 4268 d53e d9d3 c23d 98c5 3d3e 72ba cdbc
00000010: 6b96 89be 7988 8bbe 8eb2 a1be 000d a43d
00000020: e302 adbe 750f a8bc 4184 833d 8830 8bbe
00000030: c6f6 f13c 3cc1 3bbe bb17 2bbd 76f8 babd
00000040: 3410 b0bd 66fe 783e d832 47be c46d 4d3d
00000050: 30c3 89be 30c3 f4bc 0deb 2bbe e277 1fbd
00000060: 6c1b 0bbe fb40 3c3d 832a 1c3c 2859 bb3d
00000070: a930 22bd 7ec4 203f 58e8 873d 8568 4c3d
00000080: 5821 ee3c f93c 9e3e a8a7 64be 68d6 acbc
00000090: 51f5 b0bd 3872 5ebb 5bee 0f3e b139 dabd
000000a0: ae5f 07be 7bf3 f6bd 5508 f03c b581 853d
000000b0: d074 0d3d c6c0 36bf edd8 e0bd 72e3 4a3e
000000c0: 9d1f 52bd 155c fcb7 beaa 52be 0a38 80bc
000000d0: aced efbb 110d 56bd dd75 333d 5b25 1b3d
000000e0: f60c 7abe 854e 9abc 8903 8dbd 221f f63d
000000f0: e30c 773d 8d24 5c3e 0ecc f9bd 4040 86be
00000100: 898d c53c 6117 98bc 1a1d a2bb 4c6a 4e3e
00000110: b307 a3bd bb97 fa3d c94d a8be cafa 02be
00000120: 14f0 77bd 2797 4cbd d568 a4bc 3461 bc3e
00000130: f3b6 01be 8b08 f83e b9be 173e c017 e3bd
00000140: 6410 473c b936 3d3e 6c41 26be 1f25 d5bd
00000150: 571b debd 1930 4a3e 1bbe 9d3b 3eae 7abd
00000160: aac3 e3bc 1117 dfbc 1eda d4bd 769f 183e
00000170: 4b36 3c3d 5256 3cbe 79ae af3e b03f 53bb
00000180: c34d 1dbe 8192 b83c d92c d8bd 54f6 80bd
00000190: 9d65 73be b520 303c 3448 fe3c 9e2b 6ebe
000001a0: 28b0 c3bc a82d 61bd 88de 8a3d 0869 29be
000001b0: 1639 b9bd 4ca5 9bbd 3c08 0c3d 468e 453c
000001c0: 9621 aabd 341f 3fbd 08a4 dd3d 508f 533d
000001d0: d092 ea3d 4102 9e3e bbba bc3d c353 a63d
000001e0: 049d ffbd e1f7 1ebe ead9 9c3e cfb6 003e
000001f0: a9ab ff3c 7334 773d a336 18be 23d5 85be
00000200: 134f fe3d 0b48 8d3d 150c 553e f084 a33d
00000210: 52cd 2cbd 993d 34be 5093 bebd f386 75be
00000220: c38a c23d 1e7b afbe dc53 3bbd 1081 553e
00000230: c03a 813d 8b13 223e 8170 d43d 0582 463e
00000240: 3b45 74be 92ec e63d b8d0 3a3e 0f93 d2bd
00000250: 993c a0bd c120 9e3d a5eb 173c 63a8 953d
00000260: 5a39 a0bc a3af 89bd bf61 cfbd 5129 dd3d
00000270: de77 aabd 6956 143e f2c5 903d 784f 293e
00000280: 9124 8c3e 9796 a9bd 09f3 97bd 2bdd afbd
00000290: 668a 603e 630c a63d e170 43bc a37e 043f
000002a0: 37a5 25be b5ef e7bd 6de9 fbbc 84fa 86be
000002b0: b06e 80be c20a 8fbe 9ffa 91bd a438 00be
000002c0: c679 25bd fd62 d7be ebe2 02be c72c 89bd
000002d0: 8840 13be 7074 c83e b2b9 72be c1ef 2ebd
000002e0: d0b0 c73d 63b4 aabe 35a1 3a3e 0906 2dbe
000002f0: eae8 4a3b 9e1e 673e 3284 843d 9b21 813e
00000300: 8878 f1bc 9394 cebd fa2f 92bd f67b 60be
00000310: a564 27be 4d9e aebc 6b67 c4be e2ed a9bd
00000320: f851 a4be ef25 52bd 255c 17be 3de3 9c3e
00000330: eb60 c0be 1bb5 3d3f 18c5 00be 2e08 e8bd
00000340: 1de7 3bbc 0a61 c53d 89d6 07be 7a5a 1b3d
00000350: 6a64 823d 8037 5e3e a887 d8bc afef 83bb
00000360: 6370 3e3d 42e1 d6bd 3b49 0a3d 4f71 223e
00000370: e5f5 18bd d19d bbbd 760e b13d a11c 6cbd
00000380: 859a c83c 877e 0d3d d278 dbbd 9fe9 273d
00000390: 69cf acbd 8ca7 bc3d 91dc 2bbe 2975 c7bd
000003a0: 148b cd3d edab 0cbd e5b8 13bc 400b 5fbd
000003b0: 9059 3abc b4a3 873c 0b21 8d3d 4539 18be
000003c0: e097 ec3c f7b8 a13c 0a9e e4bd 39f8 fc3d
000003d0: 3390 f83d 6b67 d33d 8819 5cbe d4ff 0cbd
000003e0: fb2e ebbd 05a6 13be 197b 013c dd13 693d
000003f0: 1e56 1ebe e7ec 503d f759 ebbd dd9d 2fbe

model.2.bias f4 [64]
-0.027387513 -0.08231204 -0.04201231 0.112478845 0.031104904 -0.048831977 -0.22778453 0.038938046
-0.18359499 -0.010448003 -0.098485425 -0.043064516 0.0021171523 -0.17147033 -0.05109267 0.08701077
-0.17268036 -0.064940415 -0.13253224 -0.05419101 0.060219225 0.034033485 -0.19362181 -0.3025084
-0.10036496 -0.12219329 0.10873863 -0.35803035 -0.24857385 0.08414412 0.050025545 -0.177627
-0.037564084 0.09537282 0.020341765 -0.32123122 -0.010493595 -0.09495219 0.16909805 -0.24357644
-0.44962767 0.40016964 0.047521234 -0.21775009 -0.22443648 -0.328233 -0.41341728 -0.23442899
-0.1768469 -0.35954455 -0.13566828 0.21362565 -0.2832541 -0.046267435 -0.21257313 -0.23281752
-0.15389663 -0.44252452 -0.1393058 0.06885567 -0.18259172 0.11409185 0.1711143 -0.1884519
00000000: c75b e0bc 3793 a8bd 1a15 2cbd 4f5b e63d
00000010: b6cf fe3c 0a04 48bd 5940 69be 807d 1f3d
00000020: 5300 3cbe 1a2e 2bbc bab2 c9bd 6b64 30bd
00000030: ecbf 0a3b eb95 2fbe 8c46 51bd b432 b23d
00000040: 1fd3 30be 7bff 84bd 88b6 07be 64f7 5dbd
00000050: 6fa8 763d b266 0b3d cc44 46be 62e2 9abe
00000060: 258c cdbd 7a40 fabd 5cb2 de3d c14f b7be
00000070: 258a 7ebe c153 ac3d 96e7 4c3d dae3 35be
00000080: ccdc 19bd d352 c33d c6a3 a63c 6b78 a4be
00000090: 54ed 2bbc 4b76 c2bd 0a28 2d3e 1a6c 79be
000000a0: 9935 e6be 09e3 cc3e a0a5 423d e1f9 5ebe
000000b0: add2 65be 280e a8be 6eab d3be 270e 70be
000000c0: 5b17 35be 3916 b8be a0ec 0abe afc0 5a3e
000000d0: ae06 91be ec82 3dbd c5ac 59be b767 6ebe
000000e0: 1497 1dbe 9392 e2be 2ea6 0ebe 3404 8d3d
000000f0: 53f9 3abe fda8 e93d 9638 2f3e 89f9 40be

model.4.weight f4 [64, 64]
0.17508776 0.008229746 0.025929503 -0.040776916 0.08224221 -0.34524816 0.15766631 -0.039129235
0.17884287 0.09708834 -0.16550127 0.13085534 0.074725136 0.014062702 -0.037514277 -0.45693025
0.25505987 0.16731673 -0.073904745 -0.07803488 -0.28798932 0.033026714 0.079555206 -0.08633908
0.009637217 -0.08065431 -0.03193931 -0.15808696 -0.020633616 -0.009828297 0.18593633 0.20487058
0.06850196 0.23574999 -0.020109376 -0.14707108 0.04426832 -0.22037432 0.07337955 0.06946022
0.090064816 -0.26999417 0.15420827 0.24959175 0.31217602 0.09295291 0.16993725 0.17018522
-0.0053424467 0.06376673 -0.102933295 -0.06463978 0.023789393 0.13025534 0.013714997 0.02777555
-0.31927937 -0.037938632 -0.06536082 0.06009926 0.049472835 -0.020280052 -0.045732398 0.05907973
0.18678674 -0.13864283 0.12401132 -0.20871168 0.001120555 0.08230548 0.05524146 -0.21573292
-0.1702719 0.13387343 0.06821175 0.22245765 -0.15145482 -0.011866685 0.07854915 0.080885805
-0.31230545 0.03823641 -0.30573535 0.12827861 0.116279766 0.07817486 0.018340254 0.14038166
-0.33042035 0.21871892 0.317238 0.03620585 0.035594385 0.39055762 -0.09994235 -0.0033821804
0.12150108 -0.05360606 0.3293856 -0.14998685 -0.2823296 -0.13302895 0.23034577 0.055264574
0.00036692794 0.14611639 -0.4506262 -0.04452324 -0.16739471 -0.13003984 -0.035036873 -0.138385
0.001996372 -0.34849644 0.18599015 0.0634326 0.05720224 -0.16103849 0.12167575 0.15872383
0.23947468 -0.06159043 -0.11903715 -0.30105284 -0.3802868 0.02824683 -0.041693553 -0.012458072
0.30359337 0.009852196 0.34584633 -0.17579171 -0.0643054 0.08084717 0.059220992 -0.04657424
0.16599123 0.10599942 0.022294018 0.13339368 0.17589092 -0.0005644568 -0.08423889 -0.26884124
0.1474363 -0.02201425 0.122277096 -0.15168354 -0.051425684 0.19892016 -0.3414953 0.26119912
0.07307526 -0.057403065 0.09244886 0.060575705 0.1369181 0.21678507 0.029440586 0.14118265
-0.0039168564 0.034071725 0.18034285 0.0271082 -0.26599756 -0.43112454 0.15937841 -0.066253744
0.11432167 -0.20344904 0.24881221 0.11981848 0.06832055 0.003410114 0.2804903 0.26725045
0.13027231 -0.016754579 0.057352383 0.122181214 0.12204063 -0.19741891 -0.04397935 0.09850724
-0.26714247 0.10642956 0.19842558 0.099276885 -0.16365777 0.053800292 0.015446081 0.14054467
-0.2260212 0.11069625 0.20732148 -0.33237576 -0.04706915 -0.106883906 -0.18221626 0.007279317
0.1526864 0.21337745 -0.3403404 0.049500056 0.084952645 0.02273686 0.12055248 -0.22145562
0.47992954 0.068866126 -0.1687895 0.030172853 -0.2390091 0.2370265 -0.03649412 0.26350933
-0.322682 -0.07006134 -0.105570465 0.28283867 0.25929663 0.44231144 -0.22418028 0.43178314
0.07051682 -0.05143901 -0.2229078 0.11812891 -0.08034858 0.056425042 -0.0014131012 0.07660324
0.023108687 0.1177037 -0.09934177 0.023261067 0.13610734 -0.007298163 0.38693014 0.13774204
-0.0439056 -0.25078976 -0.06711655 -0.12886854 -0.067371674 -0.11948564 -0.010819636 0.38360995
0.0045968387 -0.12338721 -0.20435865 -0.2571664 -0.39295703 -0.11501299 -0.15808107 -0.11969976
00000000: 354a 333e 0ed6 063c 1c6a d43c b205 27bd
00000010: 9b6e a83d 5ec4 b0be 4773 213e fa45 20bd
00000020: 9622 373e 40d6 c63d 2a79 29be f1fe 053e
00000030: 7e09 993d 3f67 663c 92a8 19bd c3f2 e9be
00000040: 3597 823e 1455 2b3e 5f5b 97bd c0d0 9fbd
00000050: 5673 93be 0547 073d d7ed a23d 8bd2 b0bd
00000060: 6be5 1d3c 162e a5bd cbd2 02bd 8ce1 21be
00000070: d407 a9bc de06 21bc 1866 3e3e 98c9 513e
00000080: c14a 8c3d 7268 713e 6bbc a4bc cd99 16be
00000090: b352 353d cea9 61be 0448 963d 2941 8e3d
000000a0: e773 b83d ad3c 8abe c6e8 1d3e fb94 7f3e
000000b0: 89d5 9f3e 185e be3d 0804 2e3e 0945 2e3e
000000c0: b10f afbb 2298 823d b1ce d2bd dc61 84bd
000000d0: f9e1 c23c a861 053e deb4 603c 8d89 e33c
000000e0: 9678 a3be 8a65 1bbd e5db 85bd a42a 763d
000000f0: 07a4 4a3d 5a22 a6bc e551 3bbd 96fd 713d
00000100: 0645 3f3e 63f8 0dbe a6f9 fd3d 84b8 55be
00000110: 96df 923a c78f a83d df44 623d 17e9 5cbe
00000120: c25b 2ebe 1e16 093e 9ab2 8b3d f0cb 633e
00000130: f916 1bbe 7c6c 42bc 60de a03d 75a7 a53d
00000140: 80e6 9fbe c89d 1c3d 5889 9cbe 785b 033e
00000150: 1624 ee3d 241a a03d 4d3e 963c 36c0 0f3e
00000160: db2c a9be daf7 5f3e 056d a23e 964c 143d
00000170: 6bcb 113d 2bf7 c73e 93ae ccbd 92a7 5dbb
00000180: 8fd5 f83d 0792 5bbd 3ba5 a83e 2796 19be
00000190: 818d 90be be38 08be c3df 6b3e 1b5d 623d
000001a0: 3c60 c039 899f 153e 7ab8 e6be 005e 36bd
000001b0: 8569 2bbe 2a29 05be d382 0fbd ccb4 0dbe
000001c0: 90d5 023b 206e b2be 3474 3e3e f3e8 813d
000001d0: e54c 6a3d 46e7 24be 2331 f93d 8088 223e
000001e0: da38 753e 3f46 7cbd c0c9 f3bd 9923 9abe
000001f0: f4b4 c2be e565 e73c dcc6 2abd f11c 4cbc
00000200: 9770 9b3e 1b6b 213c c512 b13e be02 34be
00000210: 8db2 83bd 3393 a53d b691 723d a1c4 3ebd
00000220: 9bf9 293e 3916 d93d f2a1 b63c 5a98 083e
00000230: c01c 343e 0ef8 13ba 7085 acbd 8fa5 89be
00000240: 8bf9 163e 3a57 b4bc 6a6c fa3d ee52 1bbe
00000250: bda3 52bd bab1 4b3e 79d8 aebe e4bb 853e
00000260: 7ba8 953d 7a1f 6bbd d455 bd3d 3b1e 783d
00000270: 4234 0c3e e8fc 5d3e 622d f13c 2f92 103e
00000280: f958 80bb cb8e 0b3d ccab 383e 0412 de3c
00000290: d530 88be 5bbc dcbe 1834 233e 0bb0 87bd
000002a0: 7b21 ea3d f254 50be a1c8 7e3e 6463 f53d
000002b0: a5eb 8b3d 387c 5f3b 6d9c 8f3e 0dd5 883e
000002c0: 1b66 053e e640 89bc 55ea 6a3d 253a fa3d
000002d0: 70f0 f93d 2f28 4abe b123 34bd 2abe c93d
000002e0: e6c6 88be bef7 d93d 1330 4b3e ae51 cb3d
000002f0: e795 27be b25d 5c3d 8f11 7d3c f1ea 0f3e
00000300: 1a72 67be b7b4 e23d 154c 543e 282d aabe
00000310: 95cb 40bd f3e5 dabd e696 3abe 5687 ee3b
00000320: d359 1c3e 9e7f 5a3e 1941 aebe 92c0 4a3d
00000330: a7fb ad3d a742 ba3c 38e4 f63d 43c5 62be
00000340: 53b9 f53e af09 8d3d 28d7 2cbe 0f2d f73c
00000350: cdbe 74be 13b7 723e dc7a 15bd b2ea 863e
00000360: 9336 a5be 527c 8fbd 5435 d8bd 3bd0 903e
00000370: 87c2 843e a576 e23e 848f 65be ae12 dd3e
00000380: 1f6b 903d b6b1 52bd f141 64be 92ed f13d
00000390: cc8d a4bd f21d 673d cf37 b9ba 29e2 9c3d
000003a0: 6e4e bd3c a30e f13d b373 cbbd fe8d be3c
000003b0: b95f 0b3e 6e25 efbb b51b c63e 400c 0d3e
000003c0: 5cd6 33bd 8467 80be 6774 89bd 1df6 03be
000003d0: 29fa 89bd e3b4 f4bd d844 31bc 8668 c43e
000003e0: 14a1 963b 6fb2 fcbd 6543 51be 50ab 83be
000003f0: aa31 c9be ee8b ebbd 01e0 21be 2625 f5bd

model.4.bias f4 [64]
0.089446336 0.41387555 -0.24429205 -0.0367596 -0.74783665 0.1292566 -0.4011576 0.18195711
-0.41427487 0.1470989 0.15381809 0.029940024 0.23768741 0.10299913 -0.71487546 0.048656035
-0.7250246 0.21458648 -0.09651224 0.75282866 0.008384932 0.4300027 -0.073555894 -0.53565305
-0.3722906 0.13866593 -0.64588755 -0.22502778 0.44677716 0.23418547 -0.5164241 -0.294153
-0.023412226 0.47067103 0.68034244 0.036384057 -0.033505514 0.12306667 0.09539902 0.113853954
-0.52916235 -0.17955975 0.22849183 -0.22451985 -0.20970613 -0.18617806 -0.2316699 0.16109666
-0.2746443 0.6433723 0.04050916 -0.15464935 0.13937405 -0.37346447 0.115734704 0.06460132
0.3570193 -0.5909311 0.535792 -0.23438339 -0.36836544 0.41867375 -0.26235485 0.22945121
00000000: a42f b73d 7fe7 d33e b227 7abe 3c91 16bd
00000010: 3972 3fbf d85b 043e 8764 cdbe f752 3a3e
00000020: d61b d4be 18a1 163e 7d82 1d3e c844 f53c
00000030: 5464 733e 35f1 d23d 1402 37bf 8d4b 473d
00000040: 369b 39bf 8fbc 5b3e 36a8 c5bd 61b9 403f
00000050: f460 093c 5029 dc3e 79a4 96bd 8f20 09bf
00000060: e09c bebe 71fe 0d3e e358 25bf af6d 66be
00000070: fabf e43e 51ce 6f3e 5f34 04bf 399b 96be
00000080: ffca bfbc cbfb f03e ec2a 2e3f 7307 153d
00000090: 143d 09bd 610a fc3d 9060 c33d 432c e93d
000000a0: 2f77 07bf 83de 37be c3f9 693e 88e8 65be
000000b0: 34bd 56be 76a5 3ebe e03a 6dbe 86f6 243e
000000c0: 2d9e 8cbe 0cb4 243f efec 253d 665c 1ebe
000000d0: 12b8 0e3e bc36 bfbe 5106 ed3d b24d 843d
000000e0: 3ccb b63e 4347 17bf aa29 093f 3302 70be
000000f0: 659a bcbe 685c d63e 6053 86be 42f5 6a3e

model.6.weight f4 [4, 64]
-0.009675127 0.295958 -0.24265032 0.15997878 -0.3583797 0.19270945 -0.26959798 0.14319696
-0.19528265 0.09322246 0.12068317 0.019116461 0.17225902 0.18113779 -0.31500107 0.16722819
-0.21509795 0.24209976 0.0209134 0.28852057 -0.014197017 0.25725576 -0.6089964 -0.24680232
-0.36326808 0.100746125 -0.1506781 -0.24259068 0.30125767 0.28322682 -0.3320351 -0.26041895
0.11100181 0.107793644 0.31570393 0.33121008 0.016958475 0.08628967 -0.006370455 0.19222839
-0.36198097 -0.049566895 0.057784528 -0.35611838 -0.03319003 -0.25750113 -0.18163703 0.22769251
-0.23918937 0.3273313 0.1723605 -0.1412069 0.09589693 -0.14592692 0.32994086 0.020438373
0.31128508 -0.27116558 0.24278218 -0.2828932 -0.25801447 0.20704767 -0.25017223 0.2361315
0.118292704 0.25193352 -0.31738833 0.25319263 -0.38235795 0.009273637 -0.014037597 0.27858183
-0.15625757 0.16980009 0.19511135 -0.053218648 0.20614915 0.09770276 -0.4211095 0.32712224
-0.30417413 0.22498597 -0.06870293 0.3347604 0.05396848 0.21710604 0.036124665 -0.39885268
-0.3221732 0.07510499 -0.35935614 -0.1883084 0.2971643 0.2760467 -0.24693462 -0.07206094
0.36875692 0.20334543 0.24628581 0.094686955 0.043656737 0.2756906 0.23419733 0.11685072
-0.20821562 -0.41861 0.1358945 -0.4358252 -0.24060683 -0.22593626 0.19706605 0.19538212
-0.14625749 0.19397348 0.1476997 0.0372285 0.13803531 -0.18634376 0.31185517 -0.109641954
0.28581777 -0.29877964 0.19280902 -0.06015057 -0.1907689 0.25850892 -0.050692104 0.30165452
0.15825498 0.2802557 -0.08164474 -0.16819723 -0.3369573 0.16530095 -0.34750354 0.049924776
-0.3894153 0.3304496 0.18630908 0.1642835 0.19230697 -0.019950563 -0.24853556 0.28666115
-0.393772 0.28698766 0.25696933 0.30807912 0.17514524 0.085668616 -0.0195245 -0.18405268
-0.5614091 0.16379444 -0.30594602 -0.45299888 0.24285962 0.033368446 -0.36666903 0.18178205
0.17059056 0.21889219 0.24924624 0.19085324 0.26543245 -0.085722774 0.009684203 0.15289555
-0.29415652 -0.27132303 0.39213902 0.25248078 -0.20112494 -0.07020295 -0.20949921 -0.016250474
0.1054579 0.35572806 -0.25265923 0.09867652 0.25819525 0.009726241 0.28456384 0.11193432
0.23045492 -0.15186533 0.20673375 -0.044434037 -0.33301094 0.2249126 -0.15587887 0.24514696
0.17167738 0.29845238 -0.071134485 0.24054582 -0.34099784 -0.0027478563 -0.3780098 0.33184177
-0.29602152 0.28595114 0.19386593 0.1778321 -0.004296518 0.18231378 -0.26644018 -0.026310576
-0.43282193 0.21045494 -0.43911108 0.27672276 0.18389034 0.24382712 0.06714141 -0.27394366
-0.36370134 0.19647525 -0.30554396 -0.06372128 0.28448525 0.0991946 -0.16389328 -0.14451277
-0.45689163 0.31173518 0.31245658 0.24363391 0.25841078 -0.19560857 -0.0037647993 0.14634328
-0.28283265 0.06861563 0.05096687 -0.097062945 -0.08313661 0.2500977 0.09081194 0.14163357
0.13919093 0.27856517 0.289571 0.08978346 0.100733936 -0.56270564 0.18919043 0.07341248
0.17155477 -0.3045533 0.25381345 0.031260815 -0.21739294 0.20306347 -0.2615529 0.116269
00000000: 6d84 1ebc cf87 973e 5379 78be 7ad1 233e
00000010: 8b7d b7be a055 453e bf08 8abe 39a2 123e
00000020: 2df8 47be 6beb be3d bd28 f73d 209a 9c3c
00000030: ab64 303e 2f7c 393e d247 a1be de3d 2b3e
00000040: a342 5cbe 00e9 773e 9452 ab3c f8b8 933e
00000050: 9b9a 68bc 07b7 833e 30e7 1bbf bfb9 7cbe
00000060: 46fe b9be fc53 ce3d 5c4b 1abe b169 78be
00000070: 723e 9a3e 1b03 913e 8100 aabe a255 85be
00000080: eb54 e33d eac2 dc3d f2a3 a13e 5e94 a93e
00000090: 80ec 8a3c a3b8 b03d 40bf d0bb 85d7 443e
000000a0: 9255 b9be a806 4bbd 78af 6c3d 2655 b6be
000000b0: 45f2 07bd 30d7 83be 0fff 39be 3a28 693e
000000c0: 0fee 74be f897 a73e 457f 303e 8b98 10be
000000d0: 9c65 c43d de6d 15be 02ee a83e 606e a73c
000000e0: c260 9f3e 37d6 8abe e49b 783e 61d7 90be
000000f0: 791a 84be 4e04 543e 9316 80be 75cc 713e
00000100: 7243 f23d 6efd 803e b980 a2be 77a2 813e
00000110: 6cc4 c3be 74f0 173c f3fd 65bc 47a2 8e3e
00000120: fc01 20be 13e0 2d3e 45cb 473e ccfb 59bd
00000130: c318 533e 6218 c83d aa9b d7be 917c a73e
00000140: b6bc 9bbe b962 663e 1fb4 8cbd b765 ab3e
00000150: 0e0e 5d3d 0c51 5e3e 75f7 133d 6b36 ccbe
00000160: e3f3 a4be a5d0 993d 87fd b7be ebd3 40be
00000170: eb25 983e fe55 8d3e 6edc 7cbe b094 93bd
00000180: b5cd bc3e c939 503e 5932 7c3e 3ceb c13d
00000190: 68d1 323d 5127 8d3e 6dd1 6f3e 6e4f ef3d
000001a0: 7a36 55be 0d54 d6be ee27 0b3e 7b24 dfbe
000001b0: a361 76be d65b 67be afcb 493e 4012 483e
000001c0: 86c4 15be fca0 463e 973e 173e e97c 183d
000001d0: 2159 0d3e e6d0 3ebe 7bab 9f3e f68b e0bd
000001e0: b556 923e a5f9 98be ba6f 453e 7260 76bd
000001f0: ec58 43be 485b 843e 86a2 4fbd 7672 9a3e
00000200: 980d 223e ad7d 8f3e 5c35 a7bd e53b 2cbe
00000210: ab85 acbe a744 293e fceb b1be ec7d 4c3d
00000220: 7161 c7be b130 a93e cfc7 3e3e ef39 283e
00000230: 1eec 443e 5d6f a3bc 1b80 7ebe 40c5 923e
00000240: 7c9c c9be 0cf0 923e 7c91 833e 8cbc 9d3e
00000250: 4659 333e 0773 af3d d8f1 9fbc 4e78 3cbe
00000260: 82b8 0fbf bbb9 273e f5a4 9cbe 78ef e7be
00000270: 31b0 783e 5aad 083d 0bbc bbbe 1325 3a3e
00000280: 4baf 2e3e 4625 603e 683a 7f3e 086f 433e
00000290: c3e6 873e 6c8f afbd 7eaa 1e3c a790 1c3e
000002a0: af9b 96be daea 8abe 72c6 c83e 2945 813e
000002b0: b2f3 4dbe 90c6 8fbd f686 56be b71f 85bc
000002c0: 50fa d73d fd21 b63e 8d5c 81be ea16 ca3d
000002d0: 2b32 843e d05a 1f3c 5ab2 913e d23d e53d
000002e0: 60fc 6b3e 9682 1bbe 03b2 533e 7700 36bd
000002f0: 6980 aabe 7d4f 663e b69e 1fbe ce07 7b3e
00000300: 32cc 2f3e c0ce 983e f5ae 91bd a551 763e
00000310: 4597 aebe 6115 34bb 808a c1be 2ae7 a93e
00000320: 2290 97be 3068 923e ca84 463e 9e19 363e
00000330: cec9 8cbb 77b0 3a3e d96a 88be 4789 d7bc
00000340: d69a ddbe 8081 573e 2bd3 e0be 9bae 8d3e
00000350: c04d 3c3e d1ad 793e 7081 893d 5842 8cbe
00000360: 1037 babe cf30 493e 4270 9cbe 4d80 82bd
00000370: 0da8 913e 8a26 cb3d a4d3 27be 28fb 13be
00000380: b3ed e9be c19b 9f3e 4ffa 9f3e 2b7b 793e
00000390: 6b4e 843e 9d4d 48be daba 76bb 03db 153e
000003a0: 71cf 90be 5a86 8c3d a3c2 503d f0c8 c6bd
000003b0: 8743 aabd ce0c 803e 9cfb b93d 6408 113e
000003c0: 1188 0e3e 18a0 8e3e a642 943e 64e0 b73d
000003d0: 984d ce3d 7a0d 10bf 23bb 413e 4859 963d
000003e0: 0eac 2f3e 69ee 9bbe d6f3 813e 570b 003d
000003f0: 419c 5ebe dfef 4f3e 43ea 85be 711e ee3d

model.6.bias f4 [4]
0.36732185 0.40970975 0.4406253 0.37591827
00000000: 9c11 bc3e 7ac5 d13e a499 e13e 5c78 c03e
